model/bias.npz (npz, 2370 bytes, 3 tensors)

layer0 f8 [128]
000000 b7 05 29 15 0f c1 d8 bf 32 62 49 1d eb f5 a6 3f
       -0.38678338114194893 0.04484495861533268
000010 07 66 d3 fd 2f 02 cf bf 20 78 6c 0d a7 7f c3 3f
       -0.2422542561896963 0.1523331466241311
000020 28 87 63 c9 0d 1e a3 3f 0e 46 15 11 35 9c c0 bf
       0.0373386677108683 -0.12976706823478462
000030 c1 82 1d 23 be e6 c9 3f f2 ab cb 72 97 98 b8 bf
       0.20235420908558946 -0.09607836296679276
000040 08 52 c0 73 79 e2 a1 3f 58 b5 ee 4a d0 47 c6 bf
       0.03493098772029063 -0.17406657847224483
000050 7d 0b 52 6d 80 dc c0 3f ad 9d 47 4f cd 15 9f bf
       0.13172917688288158 -0.03035660549531165
000060 8e 5b 50 98 68 31 d0 bf c9 53 a0 af d2 90 c0 3f
       -0.2530156600418473 0.12941964698316458
000070 21 65 87 80 30 99 c8 bf f6 87 bb 97 fc fd a1 3f
       -0.19217497134995035 0.035140889665640815
000080 78 25 69 61 d9 9f b8 3f 38 15 e2 54 ff 7d a7 3f
       0.09618910434905625 0.04588315879031274
000090 3b 76 1c a5 72 74 d7 3f 30 3a 15 f3 e2 34 94 bf
       0.36648241161478595 -0.01973299606953044
0000a0 8c c7 ff 67 21 d1 98 3f b6 e4 05 80 e5 cf b8 bf
       0.024235269520381617 -0.09692224860727347
0000b0 38 ed 70 ea ac 5c bc bf 77 bf 41 e5 ca 18 bf bf
       -0.11078911517772816 -0.1214720544537594
0000c0 c9 be 7a e1 fd ea d3 3f 30 84 e2 be e9 94 bf 3f
       0.3112177564571366 0.12336598310732039
0000d0 2c b0 f4 8d 4b 9e c7 3f c0 c8 d5 dd 4f f8 a4 bf
       0.184518284143793 -0.04095697005222254
0000e0 85 8e 85 ab ea 05 6d 3f 03 fa eb 7c 41 31 af bf
       0.003542860355240598 -0.060922667025796094
0000f0 98 3f 44 6d 7a 06 6b bf a4 f6 d9 b6 c8 7d c4 3f
       -0.0032989874981765414 0.16008862427036263
000100 00 49 1d 7c 08 04 bc bf a7 f7 64 15 8b a3 b5 3f
       -0.10943654089104271 0.0845267226440841
000110 81 3f 62 9c 9e b9 b9 bf 1d 12 a2 60 79 72 b0 3f
       -0.10048857992137351 0.0642467366142871
000120 a7 c0 ad 46 e1 8f a7 3f 72 37 70 a1 96 64 b6 bf
       0.04601959216859202 -0.08747235719076032
000130 f6 f5 6f 35 85 d8 b6 3f 5f 5e a5 e9 6f d3 b8 bf
       0.08924133829710698 -0.09697627500769944
000140 a1 f7 66 0c 43 a4 72 bf 78 05 e9 28 07 85 c3 3f
       -0.004551183612816618 0.15249719140596674
000150 33 38 1c 88 5f ba c9 3f c8 78 3d 5e c9 1a b3 3f
       0.20100015779502342 0.07462748099121363
000160 a0 d5 ec b6 79 a2 b2 3f 83 b7 84 b8 1d fe b9 3f
       0.07279167858071967 0.10153375391811718
000170 af 77 c3 50 fe 47 ce 3f 45 5c d4 98 e9 c6 ad bf
       0.23657206481487722 -0.05815820685000309
000180 35 be b8 e4 4e 40 b0 3f f2 b9 bb 59 8c 14 a3 bf
       0.06348126491570201 -0.03726614566209098
000190 56 ac 36 95 1f 15 a2 bf 07 48 3c 6b 45 7a 8c 3f
       -0.03531740852789571 0.013905088744227368
0001a0 09 6a d7 c1 b1 75 9a bf 81 ae 06 ef a3 7c c7 3f
       -0.02583959336866751 0.1834912221068983
0001b0 87 f6 10 39 0f 72 c2 3f f9 83 07 62 0a 7f c1 3f
       0.14410581861914215 0.1366894701632473
0001c0 cb f7 3e d3 6c a2 c4 3f 79 3b ee 09 f0 9e c3 3f
       0.16120682062859112 0.15328789219753583
0001d0 bd 52 db 71 31 46 bc bf cc b2 ac 5a 06 45 94 3f
       -0.11044606237130501 0.019794558796251846
0001e0 90 fb 69 bf e2 c7 c0 bf 88 27 ae 68 67 79 83 3f
       -0.1311000284804007 0.009508903390969228
0001f0 b2 86 5d cf b9 09 ab bf 0a a2 26 e8 1e f6 a5 bf
       -0.05280857712092536 -0.04289337715028203
000200 3f ac 01 b4 ec 3b b4 bf 75 d7 fb a6 88 fd b4 3f
       -0.07903937716189179 0.08199361874343743
000210 f3 74 b5 f2 23 d7 b5 bf 04 b2 5f 55 5a b1 b3 3f
       -0.08531403232105443 0.07692493995973143
000220 aa b6 42 73 d1 e9 c7 bf 98 fb 8d b0 4c 29 81 bf
       -0.18682306411704036 -0.008379553926486413
000230 18 66 84 80 58 d1 b4 3f 43 05 1b d9 a9 2b be bf
       0.08131936204554113 -0.11785375166347926
000240 ae af f3 85 d8 f8 8a bf 52 68 3c 75 29 15 d6 3f
       -0.013169948184859805 0.3450416226274956
000250 95 62 dc 88 ab 78 c6 bf 66 a6 34 a5 be cd 76 bf
       -0.1755575578943264 -0.005567307194078807
000260 02 a3 94 bd b7 ce 76 3f 26 3c bf 82 36 34 a3 3f
       0.005568235146065305 0.03750772806198936
000270 ce 75 85 b6 c6 1b b7 3f 4f a2 5e 84 11 60 c2 3f
       0.0902675815209115 0.14355677569735056
000280 fd 01 98 f3 1e d2 76 3f d4 e5 06 b9 c5 1e c3 bf
       0.005571480659910308 -0.14937659773367662
000290 71 89 37 5e ce 23 c0 3f 84 88 35 ae 1c 22 ca bf
       0.12609271622120446 -0.20416601663879785
0002a0 4e 9a bc 39 39 28 a5 3f c2 53 68 9b 35 83 c9 bf
       0.041322506235066045 -0.19931669319399076
0002b0 3e 2b 38 7f dd 9a 9a bf 83 e0 ad 35 a4 4d 84 3f
       -0.02598138894067436 0.009913714302214998
0002c0 b8 91 63 8b df 2e b5 3f 55 1a 8d 88 38 10 b1 3f
       0.08274647858667705 0.06665376027840726
0002d0 2c 53 c2 0d 9b 4e 71 3f 50 f8 2b 00 1f df b3 bf
       0.004225354841896938 -0.07762330774491599
0002e0 d9 73 5c ef 4a 64 aa 3f 80 89 61 80 8e 9d b9 bf
       0.05154642269028615 -0.10006037363340248
0002f0 b0 6d f2 7a 02 8d bd 3f 41 df 6a 2f dc 52 87 3f
       0.11543288709292798 0.01138851184565193
000300 d2 70 6b 4c 03 8c c7 bf 7a eb 73 45 76 16 cd 3f
       -0.18396035415106 0.22724798575640276
000310 6e 4f 0c 9a 50 d4 98 3f 24 e5 b5 90 ea 25 ab 3f
       0.02424741687998682 0.05302365318761762
000320 f5 de 55 82 24 0d b7 bf 8a 63 4d b1 d1 54 c7 3f
       -0.09004429037110724 0.18227597386683342
000330 70 ac 9a aa c0 a9 bc 3f 32 09 72 b5 ba f1 b4 bf
       0.1119652191652436 -0.08181349687405229
000340 20 72 3a 64 94 a2 a3 3f e9 20 29 f1 59 c1 b6 3f
       0.038349759325886135 0.08888780725203883
000350 9b 6c 9b eb 0e 4d 84 3f 49 69 f7 17 ab 04 a2 3f
       0.009912602009924767 0.03519186656531532
000360 a1 73 61 b9 3e 2e b3 bf 67 53 24 70 5c 8f c3 bf
       -0.07492439294715193 -0.15281253314665408
000370 b3 0e f9 9c 76 74 a3 3f 1c dd fe 43 47 7e c1 3f
       0.037997919713715154 0.13666621036620874
000380 09 41 db 40 7a 78 9e bf 53 87 7c 6b 3a 8b c5 bf
       -0.029756460388683546 -0.1683114075504429
000390 68 38 7c ea 74 c8 b2 3f a9 6d 97 58 51 03 bd bf
       0.0733712265466423 -0.11333187497023424
0003a0 b3 92 c1 95 10 21 b7 3f 81 1d d4 4f ac da c6 bf
       0.09034827858119847 -0.17854837320212982
0003b0 7e 12 32 b5 1a f4 b9 bf 55 ca 04 75 f4 69 aa 3f
       -0.1013809864399011 0.051589621815214905
0003c0 b5 d3 d5 c2 c5 07 a8 bf c4 2d b6 6c e0 4b ba 3f
       -0.04693429950103881 0.10272028593151733
0003d0 79 d2 51 5b 4b a1 ab 3f 7c 23 3a d2 b0 b4 97 3f
       0.05396495332471302 0.0231502178490106
0003e0 e5 1a f4 20 54 43 c2 3f 35 16 f1 85 1b ed a0 3f
       0.14267970665988297 0.03305898675948208
0003f0 7d 8b 6e e8 74 8f c4 3f c5 6d 75 47 91 31 b0 bf
       0.1606279501839615 -0.06325633997533149

layer1 f8 [64]
000000 c7 7b 44 3a 37 f2 d3 3f e5 bf 63 fa 7d 04 c2 bf
       0.31165867510020145 -0.14076208807045912
000010 f7 fb 18 7e 86 9c 99 bf ca 32 7c 3e c3 1e c6 bf
       -0.02501115936888351 -0.17281380225212778
000020 cf 84 30 a1 d6 b6 a6 bf 27 04 95 f1 8d 99 a1 bf
       -0.04436369626660907 -0.03437465261459521
000030 56 93 57 d9 78 41 b8 3f d5 1d 01 4b bb 3b a5 bf
       0.0947490244503347 -0.041471341043287126
000040 93 76 6b 14 d6 93 c0 bf f7 a5 e5 18 3a b7 d3 3f
       -0.129511604281039 0.30805828505853533
000050 c7 c6 5f 1a 2d 51 d4 bf 9c c8 b7 86 1b c3 b1 bf
       -0.3174546010551293 -0.06938335455905292
000060 a3 78 6c e7 64 7e d0 3f d9 0e c0 e0 13 6e 80 3f
       0.25771448707554095 0.008022456451733205
000070 d4 6b 00 5e e5 22 80 bf 77 77 da fd 38 56 6c bf
       -0.007879058772280269 -0.003459082900760298
000080 9a b7 f4 25 8f 08 d1 3f c4 58 92 16 3f 26 bf 3f
       0.26614741045602275 0.1216773443323716
000090 fb 80 13 7a 79 bd 6f bf 1a c0 30 5a 95 85 67 bf
       -0.0038745281786846087 -0.002871314719890006
0000a0 55 d0 65 58 5b 1c 70 3f fc 6a be dc 0f d1 9b 3f
       0.0039332931686325194 0.027164695594914953
0000b0 96 53 15 e5 f3 3e c9 3f be 50 8f 05 b2 7c b6 bf
       0.19723366437633832 -0.08784020076501783
0000c0 eb 12 57 eb 89 fe d2 3f 45 a6 1a 1a ac f2 a0 bf
       0.29678581221041495 -0.033101442514930336
0000d0 51 ce ad a7 1f c2 b9 bf 8b 43 0e 00 40 f9 cc bf
       -0.1006183418629061 -0.22635650637360202
0000e0 1d c7 33 16 bc 7e cb 3f b5 b2 29 cd 5e 7e cc bf
       0.2148051365289171 -0.22260651605338003
0000f0 9e d1 d0 ca 1f ec 94 bf 14 35 0f ad 15 0b 96 bf
       -0.020431992296111916 -0.021526659667690032
000100 7f dd 97 ba fb af d0 bf 2f b4 63 86 9a 08 c0 bf
       -0.2607411691855858 -0.12526256143556355
000110 50 4d 1b b6 cf 36 9d 3f f8 77 fa 32 04 c8 c8 3f
       0.02852940129271292 0.19360401620082235
000120 e5 7f 7f 24 af a4 c5 3f b6 eb 41 20 cb de d1 3f
       0.16908826143389813 0.2792232337011983
000130 dd 99 27 0c 1c 6d 64 3f 8f 30 7e 17 3c 40 b0 3f
       0.0024934337427453394 0.06348014424856017
000140 1d 9b 0b 04 f1 8a 84 3f 20 b2 b1 4c 4f 92 be 3f
       0.010030634818986745 0.11942000982680456
000150 52 e4 e9 5a fd 6f c5 3f 2e df ec cc 9f 92 b3 3f
       0.16748015345709405 0.07645605805452924
000160 c8 56 42 96 49 12 ce 3f 0a 14 d3 30 9c 4f ae 3f
       0.23493308865425022 0.059201127014183966
000170 e0 3b fd 6d 3e 48 c9 3f 42 a3 4c 52 5c 87 c1 3f
       0.19751720781866222 0.13694337862514244
000180 4a 76 f3 44 b1 7d b1 3f 46 89 71 c7 ae 94 94 3f
       0.06832416470884897 0.0200984296064999
000190 13 a5 ad 35 58 be b9 3f 61 94 57 b4 95 83 c7 bf
       0.10056067762856839 -0.18370314889685616
0001a0 d8 8a 09 70 e8 c8 d2 3f 3b 31 91 df ec 1f a8 bf
       0.2935124487031948 -0.04711857060519483
0001b0 32 28 31 b9 18 98 cc 3f 59 af c3 84 34 61 a7 bf
       0.22339161913470346 -0.045663491446105105
0001c0 eb fb 9a 02 94 15 c4 3f c0 11 f8 72 4d fc c6 3f
       0.15690851332871544 0.17957466233941766
0001d0 f3 b9 88 13 e1 6f ce 3f 41 50 f7 58 9a 28 c4 3f
       0.2377892823582922 0.15748910278364472
0001e0 92 39 c6 f2 f4 ac cd 3f 6b 67 7c 5d fc d7 b9 bf
       0.23184072355475088 -0.10095193178531552
0001f0 c5 99 e3 51 ab 63 9e 3f ce 5e 48 d9 b6 20 a8 bf
       0.029677082894431956 -0.04712458994270961

layer2 f8 [10]
000000 69 94 e0 76 f1 dc b2 bf eb 83 6c 9a 06 14 d2 bf
       -0.07368382599141089 -0.2824722774549275
000010 59 da fe c6 d5 05 59 bf 59 1a 2f 9d fa 57 c9 bf
       -0.0015272700947953825 -0.19799740481376452
000020 cb 02 91 69 2d d4 b6 3f e8 e8 39 ee b5 4c a1 bf
       0.08917507006936913 -0.03378838093790809
000030 ae fd db 9a 82 70 78 3f 7d c7 12 e1 1b 9c 7d bf
       0.005966673064676282 -0.007228955176445837
000040 c1 f1 b8 43 85 8f da 3f 29 51 60 cf 10 c9 a1 bf
       0.41500980008620664 -0.034737134279710986
