model/bias.npz (npz, 2370 bytes, 3 tensors)

layer0 f8 [128]
0.594871662869731 -0.31212675661760475 0.1295252915703322 0.29302410602926043 0.2724590052854318 -0.047390063178363036 0.11372281178467794 0.012216013597539944
0.1702159820425545 0.024661785034806157 -0.1216415748716158 0.09776378889642788 -0.02861593626676314 -0.0010625383778324886 0.14193500390695898 0.04440795171217979
-0.05198832080378902 -0.04735519255713663 0.17882741758570175 -0.06549569797003642 0.34460600351792325 0.010931955403062615 -0.23952728613288177 -0.14364482734581507
-0.06006275483131004 -0.0729695101819919 0.06601924326368377 0.4808140020364014 -0.12735512098733914 -0.10106408668289411 0.07668528720470769 0.023659839831442247
-0.029825366752912273 -0.10311247513061848 0.06567859282001025 0.19119719492765325 0.12674998774273374 0.07221293155311646 0.10148681564541502 -0.15227467520299312
0.06776915661630645 -0.15020401745028167 0.3521155866807673 -0.02732038497471362 0.0753988984738342 0.21394463795825314 0.19656551814544954 0.28996535867131246
0.1324687880301546 -0.16464247764217235 0.3465380928652653 -0.08559938185760375 0.15572378363148479 0.04524826531848862 0.07072350190696221 -0.16106969489614242
-0.12214728610799779 0.2374281684868494 -0.08571473559192161 0.2752227756203871 0.03788358952950704 -0.14197739218460756 -0.2332078092682538 0.07100822414784091
0.2808245126044118 0.23310694967090287 0.00782938105303629 -0.18147532840991382 -0.2999714219130829 -0.03232625767493993 -0.37345878386911446 -0.12422006081428254
0.11575358456690617 -0.050560196039651166 -0.04097605329626357 -0.018453098382064253 -0.06796042809475074 -0.05513502728992276 -0.07362468517131368 -0.256998064336772
-0.08236515014341096 0.2402210431835768 -0.04828421352516601 0.25525579915708224 0.06926067458072149 0.08310116077193133 0.21863308892576835 -0.14615812601610992
-0.03784678412802902 0.34985962346094984 0.010982222393511458 0.016094098166430454 -0.03788911220955941 0.04855720464073079 -0.01246890631685875 0.13500628490400432
-0.026171642658826794 -0.1278851459393859 0.13780933085079616 -0.033918219121235375 0.014375175528386153 -0.1575173385636275 0.05587887279036251 -0.23519507529342443
0.0021327522260774236 -0.01599366639449408 0.21497545664346915 0.045471261127388155 -0.09329114062063702 0.1703151853616096 0.09455471875486751 -0.06197872677190655
-0.11686490694846048 -0.20007768043335497 -0.20781186513098063 0.3236647333236023 0.2105282630417741 -0.10483965034466894 -0.08738919047154405 0.20792334300359935
0.023007110559892192 -0.28752537779372983 -0.238482006350436 -0.2568112989919481 0.13248208061346156 0.04533591092090484 0.14524935017705104 -0.005562938128661168
00000000: d8f6 2a4c 3009 e33f 3944 f880 e2f9 d3bf
00000010: 1854 a6e5 4894 c03f b875 152e e8c0 d23f
00000020: 5be7 4ce5 f76f d13f 814c 03a7 8243 a8bf
00000030: 8aa2 6c2d f01c bd3f e784 1c97 b504 893f
00000040: bc8c 1026 a3c9 c53f 12ed bd60 f040 993f
00000050: 9353 e8f9 e623 bfbf 870f 0b34 0c07 b93f
00000060: 1603 a4f9 7e4d 9dbf fda4 58e5 9b68 51bf
00000070: 1311 f81b ed2a c23f 7c83 9298 a3bc a63f
00000080: 41a1 4093 369e aabf 5449 a896 f03e a8bf
00000090: 1451 141b d1e3 c63f 295c cf78 53c4 b0bf
000000a0: ec57 c756 060e d63f d6f7 7f37 7e63 863f
000000b0: c45d 3882 d4a8 cebf c04c d825 f462 c2bf
000000c0: ab91 6a9f 8bc0 aebf 2538 d63b 21ae b2bf
000000d0: 8664 b91a a3e6 b03f 5922 8d17 a8c5 de3f
000000e0: 0833 cf2f 2c4d c0bf 5767 1a03 56df b9bf
000000f0: 10eb a0a0 a5a1 b33f 3bf4 37f9 483a 983f
00000100: 060b 2e7b 8a8a 9ebf efe0 7e44 9465 babf
00000110: 0b91 35f0 4fd0 b03f fa8d a651 2679 c83f
00000120: f5cc 0ff6 5739 c03f a771 5ef3 8b7c b23f
00000130: d517 2c3a 0afb b93f 99c0 008f bc7d c3bf
00000140: a833 58c7 5159 b13f 80a0 569f e239 c3bf
00000150: fd2a 4dd0 0f89 d63f b00e ecff dff9 9bbf
00000160: 997b 199b 574d b33f 84b6 97b3 8962 cb3f
00000170: 385e fa13 0f29 c93f 2cd6 1ddd ca8e d23f
00000180: 4c46 2abc bcf4 c03f 95b5 8034 0113 c5bf
00000190: 6d2b eb1b ae2d d63f 91df a251 d7e9 b5bf
000001a0: b50b f4c6 c1ee c33f 56be 7cd7 c72a a73f
000001b0: 39be bf77 ef1a b23f 1452 fa87 ee9d c4bf
000001c0: 8306 2167 0b45 bfbf d26c 66d5 0b64 ce3f
000001d0: 2c10 27a2 66f1 b5bf a4d9 19fd 3f9d d13f
000001e0: 172c 2b54 7a65 a33f 0b25 1ab0 502c c2bf
000001f0: 6c4e fde4 c0d9 cdbf 9046 7650 982d b23f
00000200: 0945 6360 07f9 d13f b946 a7d2 72d6 cd3f
00000210: eed1 90bc d908 803f 9295 4664 953a c7bf
00000220: d87b b655 bb32 d3bf c328 0837 118d a0bf
00000230: 3acb c7ab bfe6 d7bf 7358 b4ca e2cc bfbf
00000240: dd10 1ce4 06a2 bd3f 0776 f0a8 06e3 a9bf
00000250: c638 a731 d0fa a4bf eb4b 3e78 5ee5 92bf
00000260: 2dd0 16c8 da65 b1bf c908 2686 a83a acbf
00000270: e634 fd3e 11d9 b2bf 258d 5d02 a872 d0bf
00000280: 4932 32ea e115 b5bf 6269 242a 90bf ce3f
00000290: e3e0 015c b5b8 a8bf e79d 5f6b 1c56 d03f
000002a0: e81c 394c 11bb b13f da6b c61f 1e46 b53f
000002b0: b73b 6147 2bfc cb3f d554 a439 4fb5 c2bf
000002c0: 6364 2d58 a760 a3bf 6f29 3d9e 1964 d63f
000002d0: 0fe7 23f0 d87d 863f 183c 22a5 f87a 903f
000002e0: 550a a1a3 3366 a3bf 8390 d56b 7ddc a83f
000002f0: 5849 c846 4c89 89bf 6765 35cd e247 c13f
00000300: 8883 3535 bdcc 9abf bf17 ba5b 8a5e c0bf
00000310: 783d 8b74 bca3 c13f 4f81 ba93 ba5d a1bf
00000320: ad40 2666 bb70 8d3f c984 d734 8729 c4bf
00000330: fe09 58d6 279c ac3f d062 484a df1a cebf
00000340: c397 f7a1 b478 613f e410 6ec8 a460 90bf
00000350: 8ff9 dcd5 5084 cb3f 7a67 e656 0248 a73f
00000360: 57e0 f89d ede1 b7bf 10f5 9153 e3cc c53f
00000370: f610 bcf0 bc34 b83f 04ed 10f9 acbb afbf
00000380: e5ca 64c9 dbea bdbf 5576 0f3b 259c c9bf
00000390: 61aa 3a46 9499 cabf 6994 1f49 ecb6 d43f
000003a0: 1df5 5212 97f2 ca3f 02ef 8d75 c5d6 babf
000003b0: f164 1953 235f b6bf ef41 236b 3b9d ca3f
000003c0: 9284 b80d 2d8f 973f 2b39 99d7 d066 d2bf
000003d0: bfd3 fa10 9486 cebf fa79 9aa8 986f d0bf
000003e0: ac3a c53d 2cf5 c03f 21b4 7abd 4436 a73f
000003f0: ae49 63dc 8797 c23f 8ffb 50d5 29c9 76bf

layer1 f8 [64]
-0.0782748857367586 -0.09071617172977973 -0.0977177195480784 -0.004162440148407623 -0.019740683215766927 -0.1504767433583668 -0.028176996548783854 0.2413710052500572
0.001136658327652687 -0.010747728022531712 -0.022244290032665363 -0.06541382362437467 -0.09294680178196775 -0.06242194041482063 0.024287615970644258 0.08352509050619532
-0.12587404114076434 -0.012221416619730143 0.024028269455959515 -0.1568038903107022 -0.14474426960827358 0.010075163065307492 -0.0021228338993549887 -0.12055447989127327
-0.1910263595455207 -0.09765996853426574 -0.22056143595415778 -0.05022258768783325 0.047463140618514296 -0.025797737689230524 0.012936709218195834 0.018479410503418836
0.19016950177778225 0.0816638510842976 -0.057988048792894056 -0.1621345099755592 -0.10598309282629424 -0.042254118984834776 -0.24821564250359476 -0.24972010895516666
-0.09202517861960911 0.09468355717927766 -0.0940044278123488 -0.22026737386838294 -0.08934040375248736 -0.10948909669680126 -0.016067671352867144 0.09346884282721313
0.08065860503914625 -0.07173622808864802 0.048845898408442286 0.03210698575199507 0.1987976563985112 0.15091557274662867 0.002446884684091039 0.06708640010821909
-0.0854781362983396 -0.22108012276707234 -0.2629612157209619 -0.13081389716684547 0.19235005959099136 -0.06773249899933438 -0.07864462270188029 -0.04197876744590986
00000000: 6367 56aa d209 b4bf 9f37 ccce 2c39 b7bf
00000010: c8dd b249 0704 b9bf 9088 f184 a20c 71bf
00000020: bce9 3fd3 e636 94bf d431 c469 d242 c3bf
00000030: aec4 b43a 6eda 9cbf bd35 e0be 3ee5 ce3f
00000040: d900 0496 7d9f 523f a194 e7a2 e702 86bf
00000050: 3e26 da08 35c7 96bf d249 2cd9 f5be b0bf
00000060: 55dd eb91 5ccb b7bf 30df 44c1 c4f5 afbf
00000070: ccb9 2a51 dade 983f c39a 1e7c e661 b53f
00000080: 66b6 0efd a31c c0bf 214e 8ac5 8a07 89bf
00000090: 49a6 f8dd dd9a 983f 9490 625e 2612 c4bf
000000a0: dc1e 20f0 fa86 c2bf e75b f07e 49a2 843f
000000b0: 2bb1 85c5 e763 61bf 64f1 848c a8dc bebf
000000c0: 6b02 763f 8d73 c8bf d9a9 fb62 3e00 b9bf
000000d0: b448 176d 5b3b ccbf 7c8b 4767 c6b6 a9bf
000000e0: cea5 71b9 164d a83f 197f bede b86a 9abf
000000f0: 9c81 14b8 8f7e 8a3f e0d1 0b3f 44ec 923f
00000100: 2885 6a67 7957 c83f 2627 ac11 ece7 b43f
00000110: 7aa8 3f0a 9cb0 adbf 13f2 f2d8 d2c0 c4bf
00000120: 772c 9e3d b521 bbbf 5083 52f6 54a2 a5bf
00000130: ed4b 74b9 87c5 cfbf 02d9 8e1a d4f6 cfbf
00000140: 6f6c 944c f68e b7bf 3fcf 8d7d 2e3d b83f
00000150: 6c1b 2297 ac10 b8bf 39fc 91a7 b831 ccbf
00000160: fc0f 5440 03df b6bf e6d2 9439 7a07 bcbf
00000170: 040b ef2b 0b74 90bf c849 23f7 92ed b73f
00000180: b1bb c8d6 0aa6 b43f 8242 9431 4e5d b2bf
00000190: b97e 6a60 5402 a93f 5a50 8eab 5370 a03f
000001a0: f863 609c 3372 c93f 4fb2 b394 3351 c33f
000001b0: f485 3f36 7d0b 643f b89e 7806 932c b13f
000001c0: 6ba5 ec27 e5e1 b5bf 5445 8a7c 5a4c ccbf
000001d0: e3d3 6847 5bd4 d0bf fdd1 1881 82be c0bf
000001e0: cbd9 a93f ed9e c83f 2d18 14c4 ea56 b1bf
000001f0: 15c6 82d2 0d22 b4bf 0bf7 9cb2 3d7e a5bf

layer2 f8 [10]
-0.16460846304857407 -0.1493467257354262 0.22189931975977012 0.601374210469143 -0.10260665974807347 0.5484870733068244 -0.1339704624354794 -0.21174540924894644
-0.39047035290926885 -0.2190125304099997
00000000: 221f b8de e311 c5bf e92f 6623 cb1d c3bf
00000010: dab9 af68 3267 cc3f e5ed d320 753e e33f
00000020: 2f43 f817 6e44 babf c935 44c3 348d e13f
00000030: 302b 65b1 f125 c1bf c3b3 e63b 791a cbbf
00000040: 8562 f35c 77fd d8bf 4138 c343 9a08 ccbf
