model/weights.npz (npz, 874226 bytes, 3 tensors)

layer0 f8 [128, 784]
000000 80 fb 71 1c cb 74 a3 bf 0c 85 3f b9 79 5d 8b bf
       -0.03800043794853192 -0.01336188408453378
000010 2b db 73 78 1e cb b1 3f 4c 4c 8c a1 d4 73 ae 3f
       0.06950560036407853 0.059477467270106915
000020 57 8a ea 88 a2 54 aa 3f 05 93 83 ad 06 df b1 3f
       0.051426963055992196 0.06980935798817363
000030 ba 7b 4b 6e fc 92 a6 3f 87 2c d5 3b 27 e6 9b bf
       0.044090164626815434 -0.027245152499102445
000040 87 c9 31 41 41 e9 79 bf fb 81 45 29 e7 d3 88 bf
       -0.006325964833296622 -0.01212292284680049
000050 c3 78 2f 39 9e c9 8d bf 6d 87 3a b7 d5 cb a2 bf
       -0.014544712181244873 -0.036711386315132134
000060 aa 2f 2a 32 58 ad b9 3f af ac 57 30 be 1b b1 bf
       0.10030127739645303 -0.06682957344280525
000070 08 02 36 16 b8 7d a5 3f 97 33 34 8b 69 4f 85 3f
       0.04197478552942263 0.010405373154321924
000080 47 48 9f 79 79 13 a2 3f 3d 2c b2 d0 ea 56 be 3f
       0.03530482873578982 0.11851375193707354
000090 01 70 82 60 bf 31 b6 bf 87 47 d3 70 aa 29 a6 3f
       -0.08669658762158862 0.04328663470518195
0000a0 6c 05 07 82 d0 2b 68 3f 6b 67 7e a9 36 90 b3 bf
       0.002950579874067818 -0.0764192737391604
0000b0 aa 9f 21 1d 37 99 55 3f 4d 27 b0 b1 d5 f6 b5 3f
       0.0013182676525733497 0.08579764926994678
0000c0 54 97 3b 53 3c b1 5a 3f cd 36 db 44 1e bc a5 bf
       0.0016291703331545353 -0.04245085325747553
0000d0 e8 51 a2 02 e7 45 a3 3f 88 f2 20 e3 82 4f c0 bf
       0.03764268786577302 -0.12742649164455977
0000e0 fd b2 26 00 6c fb a2 bf fd 1a 4c 56 c9 cb 96 3f
       -0.03707444669575997 0.022261758701485047
0000f0 2b 7d c6 b4 2f 86 ba 3f 9a 0f dd 01 a4 8e 93 3f
       0.10361002124271994 0.01909881841062564
000100 34 92 23 68 8a c8 85 3f 36 aa 7d 1a a2 45 97 3f
       0.01063640718752721 0.0227265671414136
000110 45 a1 60 58 8f de 66 3f bd d6 98 41 46 3b 80 bf
       0.0027916717254080924 -0.007925557019102464
000120 ed b5 85 92 c0 ae b4 3f ed 57 f6 0b ad 7a c2 3f
       0.08079150750355497 0.1443687733087126
000130 95 cd 41 34 56 84 b6 3f ec b3 b3 78 d5 89 a8 3f
       0.08795679832274168 0.04792658899700783
000140 52 89 91 7e db 0a b0 3f 6e 53 35 81 9e 51 cc 3f
       0.0626656707768565 0.22124081906317933
000150 27 e4 63 66 f7 6b cd bf 55 17 2a 46 7d be c3 3f
       -0.22985737323304642 0.1542507736777973
000160 8b 71 11 95 f7 ae ca 3f eb aa 35 8b 33 84 cd 3f
       0.20846457270353044 0.2305969648108069
000170 32 f2 4a 3e 56 a7 b1 3f d0 b8 50 4b 06 c5 c8 3f
       0.06895960827655115 0.19351271321779118
000180 45 3f 7c 73 c5 6d b4 3f 58 f3 18 ab 48 35 c5 3f
       0.0797999770113594 0.1656885943829376
000190 a1 b2 68 70 85 cc 9b 3f a9 66 3a e0 b0 c7 a3 3f
       0.02714737413968982 0.03863289582404878
0001a0 d7 d2 90 f7 f3 94 b2 bf 89 62 47 a2 08 00 b1 bf
       -0.0725853423508157 -0.06640676462064667
0001b0 6e 51 28 63 9d 2f a4 3f e7 97 0c a5 1f 95 84 3f
       0.03942577205103502 0.010050055717851293
0001c0 66 52 25 bb 09 95 51 3f ae 56 b0 2d bb 6a 13 bf
       0.001073131087271717 -7.40696663544492e-05
0001d0 04 42 65 e4 8c 1c b3 3f 26 43 d9 73 d3 fa d3 3f
       0.07465439392149881 0.31218420327518215
0001e0 6c af ef 76 e7 06 d9 3f b1 d4 75 bc 8c 52 c4 3f
       0.3910463963973061 0.15876921846544215
0001f0 a5 fd b0 5e 82 76 b5 3f 36 a5 8c 76 c9 a8 cf 3f
       0.0838395577602485 0.24733846939606402
000200 23 29 87 d9 be 9b b6 3f a3 72 44 d9 9b 52 99 3f
       0.08831398783437243 0.024729190002391942
000210 e1 5c 47 22 d1 cf c0 3f 28 e7 38 10 3f 1c d6 3f
       0.13134206937568307 0.34547401985365633
000220 be 23 73 7e 60 1d d7 3f b0 5a 1a 4c 6b 71 e4 3f
       0.36116802548036364 0.6388451086412115
000230 e1 6e 7a 69 4b a8 e4 3f 09 fa a6 31 d2 9c d2 3f
       0.6455437717554241 0.2908215985188752
000240 fc db 2f 7b d1 d8 b4 3f 5f aa 1e 70 cf 3a d0 bf
       0.08143338448995502 -0.25358949612806286
000250 93 77 41 fd 5b 44 e1 bf a7 1b 93 67 32 0b e1 bf
       -0.539594645156955 -0.5326168082182122
000260 1a 01 db f9 b2 c3 d0 bf 17 53 26 e1 32 ba be bf
       -0.26194452667188417 -0.12002866741961458
000270 46 09 6a 81 00 13 c9 bf f1 ca d2 5f b6 64 9c 3f
       -0.19589239424755983 0.027727937315556287
000280 ec 28 d5 6f 46 b9 b9 3f 9c d4 9f fd 58 6d ae 3f
       0.10048332433976598 0.05942800613403529
000290 7f 55 4f 38 70 5c 9e 3f a4 35 4d eb 98 36 b6 3f
       0.029649499356158678 0.08677058930080378
0002a0 e2 86 42 91 3e 3e a4 bf 36 60 7e ef 6e 81 92 bf
       -0.03953738711540013 -0.018071874015362442
0002b0 eb 9b 37 f6 71 0c d0 3f 77 46 fe af b7 98 d4 3f
       0.2507595924820964 0.3218211382564741
0002c0 71 c4 92 20 0f 68 e0 3f 64 12 cb 9a 92 28 d0 3f
       0.5127025257298908 0.25247635952499636
0002d0 7c bd 83 46 55 90 d6 3f 91 02 51 b3 de 1d d7 3f
       0.3525593937510718 0.36119811545726416
0002e0 93 44 3e ec 7e 76 ca 3f 46 03 55 51 15 73 ca 3f
       0.2067412045985618 0.2066370627526572
0002f0 f2 76 b7 a0 8e b2 cf 3f 12 73 db ac e1 f5 e3 3f
       0.2476366314648924 0.6237648368947666
000300 9b 0a 5f d6 35 40 e6 3f a3 17 9f 9d 8e dc e2 3f
       0.6953381716669641 0.5894234732193023
000310 dd 67 3e 3f af 84 d7 3f ab 0b c6 e2 40 e3 b6 3f
       0.36747342277669565 0.0894051126143
000320 d0 c0 2d 73 43 aa d4 3f 9e 92 64 e9 f4 61 d4 3f
       0.32289205787584496 0.3184788016535921
000330 42 93 d1 8e 96 88 b7 3f 96 f3 0c 2a 69 f7 c3 3f
       0.09192791926177526 0.15598787835361055
000340 e7 4d 4e 5c e1 b5 c9 3f a7 3a 70 92 ac ff ba 3f
       0.20086304671404706 0.10546377730518462
000350 f6 e5 63 4f 3e 3e 95 bf 46 08 03 32 97 ef 95 bf
       -0.02074525222358222 -0.02142177813289716
000360 33 b1 0b 8d d4 a7 bc bf 03 d2 78 25 b9 19 c6 bf
       -0.11193588679788462 -0.17266001062093048
000370 c5 7f 98 9c 35 3f ca bf 0e ec 8f ac 26 af a3 bf
       -0.20505399843477626 -0.038445671620103025
000380 bc 61 4a b0 13 e3 af bf 54 2f bd 64 0e 25 b1 3f
       -0.06227933432564067 0.06697168311546636
000390 48 2e b5 88 2f b9 d5 3f 6b fb 7f 76 7b 7b d0 3f
       0.3394278368984698 0.25753676006563947
0003a0 b5 b0 6c 35 17 63 c1 bf 4f e8 20 d4 ef 8d cc 3f
       -0.13583650692578933 0.22308156831587886
0003b0 c7 22 9a 97 0c c8 d4 3f 37 a1 c7 08 f5 73 8b 3f
       0.32471003346340094 0.013404764490545602
0003c0 0f 4e 4a 0e a1 78 ca 3f ab 2b e8 fc 5c 79 c0 3f
       0.20680630872503555 0.1287037119767239
0003d0 bf 87 52 64 cc 14 d4 3f 74 f9 3b c9 4f 44 ca 3f
       0.3137694339476375 0.2052097065533861
0003e0 72 28 6c e5 aa 61 bd bf 26 34 53 a9 79 70 cb bf
       -0.11477153874526083 -0.21436997192213986
0003f0 06 6a 40 49 cc 1f ad 3f 8a bf 86 a3 46 67 a2 3f
       0.0568832244318465 0.03594418283625973
000400 b7 f0 fb bc 9e 73 c8 bf b6 1b 0c c2 07 e8 c3 bf
       -0.19102844455472276 -0.15551850295034136
000410 cb 78 69 e1 61 78 91 3f c4 6d 5b 3a fd 9a bf 3f
       0.01706078470521603 0.12345869707808449
000420 6a d6 03 ec 50 c4 7c 3f 23 19 a3 57 c5 f1 d6 bf
       0.007023159123709636 -0.35850652273474476
000430 f0 e3 6a 3e e8 60 df bf ae 99 64 7e 96 2c cc bf
       -0.49028974624121613 -0.22011071368724572
000440 9b d4 f3 8c c6 eb d2 bf 76 cc 23 0c 6d 55 dc bf
       -0.2956405998696227 -0.4427139872124778
000450 b2 3b 37 88 f3 4f a7 bf 06 08 e4 8b 10 15 ac 3f
       -0.04553185498990987 0.054848210407740836
000460 af 57 bd 54 91 d7 b1 bf d5 b1 47 6e 25 c7 a5 3f
       -0.06969555205191001 0.04253499003593545
000470 d5 5f 21 82 d5 a6 d2 3f 6e 3c 60 15 33 15 c5 3f
       0.2914327402881985 0.16470945876833148
000480 10 bd 68 6a f1 08 96 bf 45 6f f4 3e b1 00 bd bf
       -0.021518489951799558 -0.11329181467993717
000490 a8 3d 2d 96 5a 19 b4 bf 81 30 af 3f 45 3a c4 bf
       -0.07851186911033514 -0.1580282746275579
0004a0 09 89 a5 8a 4e ee bb bf 36 93 39 2d 71 89 b5 3f
       -0.10910502324034978 0.08412844995616528
0004b0 29 67 29 7a 60 87 cd 3f 54 96 2b e4 91 55 76 bf
       0.2306938740246605 -0.005452699554302127
0004c0 f7 e8 1f 3f 5f 3f d7 bf 64 75 66 c2 8e 50 d1 bf
       -0.3632429233981748 -0.27054184898755396
0004d0 f5 cb d1 31 59 d6 ce bf 33 1e 87 c4 38 df a6 bf
       -0.24091639454454108 -0.044671796789370076
0004e0 ba b2 d3 6c 12 06 c3 bf fc d9 20 5e ee c4 d1 bf
       -0.14862280191245764 -0.27764472191066125
0004f0 db 2c 68 a6 cc 1e bb bf 63 37 2e 44 c0 63 b8 3f
       -0.10593871176404283 0.09527208008350167
000500 39 95 e8 98 06 67 c2 3f f6 69 33 1b 4c 40 cd bf
       0.1437690970061938 -0.22852469757238197
000510 c8 fb 00 68 77 bf 9e bf 17 41 bd 8a 9c c0 5c 3f
       -0.030027261469736805 0.0017549065332396801
000520 15 89 8a b8 6d ed d0 bf b9 5b d2 e0 bf 80 d9 bf
       -0.26449149152371493 -0.3984832473301441
000530 41 bc da d2 a3 1f b2 3f 88 47 b9 7d d2 3c b1 3f
       0.07079528711140971 0.06733432359149394
000540 96 87 10 77 be c4 9f bf da c9 a3 28 63 31 96 bf
       -0.031023956315159383 -0.021672772746521442
000550 b0 a2 98 fd 2e 0a bb bf fb 42 45 ed ec fe d1 3f
       -0.10562413874925869 0.28118441744759054
000560 f8 78 b7 dd 1a 90 a7 3f 8a 82 28 c9 8e 0e c2 bf
       0.04602130848410185 -0.14106926748447207
000570 fc a2 48 26 42 8c bd bf 55 6a f2 7c c9 a4 c5 bf
       -0.11542142328893229 -0.1690914020626503
000580 92 66 87 2f 72 03 ca bf be 7e 59 e3 b6 b8 a4 3f
       -0.20323016472575667 0.04047175908340027
000590 28 55 0d 09 5c 86 91 bf 10 5b 4c 69 0b 89 cb bf
       -0.017114103367324024 -0.21511976853863546
0005a0 1c 61 78 c2 c3 3a c9 bf 8c a2 ff 55 7c 13 b7 bf
       -0.19710585589997087 -0.09014107799124299
0005b0 7b e5 3e 22 7b fd a2 bf 8d 17 fe 1e 4e 9a c8 bf
       -0.037090156488782854 -0.19220901978786423
0005c0 4e 38 9f 60 3f 28 d1 bf db 33 ee 62 37 69 c3 bf
       -0.26808151660668933 -0.15164844828214438
0005d0 f2 fe b6 77 5a 00 bf 3f 34 16 68 4d 30 f2 97 3f
       0.12109914229131016 0.023384813999675028
0005e0 16 5f 4a 1b ae 59 be 3f d0 7f 0f db 17 ed bc bf
       0.11855590978882122 -0.1129927549186498
0005f0 4f 27 f3 24 0c de 54 bf 68 f5 89 4f da cb df bf
       -0.001273643359854099 -0.49681718604536806
000600 06 5d e6 50 c1 f7 d7 bf a3 35 64 fc 38 87 d6 bf
       -0.37449677372337964 -0.3520033325920286
000610 28 f5 85 0b 54 17 b3 3f a9 c9 35 e0 ef a1 a3 3f
       0.07457471162156948 0.03834485637607383
000620 3f ae a4 8c a4 5f 77 bf c6 0e 26 b0 b4 cb cb 3f
       -0.005706446429296685 0.21715410805710728
000630 0c b5 7b b0 24 1c d6 bf 51 59 12 4a a8 7f cf 3f
       -0.345467731806665 0.24608329407483123
000640 03 e4 e9 1e bb ed b4 3f f9 b5 93 7e 57 c5 cc 3f
       0.08175248627402713 0.22477239304082255
000650 00 0e 9b 67 c5 6c ab 3f 4b cc 7f 20 8e 87 ac 3f
       0.05356423272817423 0.05572170397490391
000660 c8 0a 3e 2f 0b d3 a3 bf a1 64 39 62 92 61 ba bf
       -0.03871951057137363 -0.10305132768680149
000670 64 9d 4d 61 63 80 ca bf 28 19 10 46 83 ea c9 bf
       -0.2070430970299909 -0.20246926232375384
000680 5a 9f a4 be 97 2f c3 bf 10 24 5f f9 03 f8 6b 3f
       -0.14988991554968828 0.0034141614550873348
000690 dd 06 16 da db 0f c4 3f fe 19 75 eb f3 df 86 3f
       0.1567339720605138 0.0111693435889153
0006a0 77 49 f1 35 7a 16 96 3f 77 d0 fa 6c 25 3e b9 3f
       0.021570119421377733 0.0986045256675555
0006b0 ba 78 78 37 b2 a8 a2 3f 55 b1 ea 5a 11 c3 ba 3f
       0.036443299552261846 0.10453899831435838
0006c0 fa d8 fb 9b 2f 99 b4 bf fe 39 2f 2a d5 65 d9 bf
       -0.08046243246267074 -0.3968403732259559
0006d0 61 0d a6 17 44 53 d1 bf d5 a7 16 92 51 ee cc bf
       -0.27070715245664273 -0.22602290757396185
0006e0 80 af 19 d4 ff 89 de bf dc 20 d0 c6 f9 d5 d1 bf
       -0.4771728106777502 -0.2786850396664826
0006f0 f7 d2 88 e7 fd ce d5 3f 2c f7 57 bf 2f 58 90 3f
       0.34075877772129054 0.015961404851615388
000700 84 53 63 f8 3a 7e cc bf 71 f7 44 e0 77 0c af 3f
       -0.22260224464721656 0.06064200031913359
000710 52 e7 97 4c f7 96 d3 bf f5 1c b3 df 7b 67 ad 3f
       -0.3060892341596758 0.05743014436444042
000720 8f c4 41 8d 75 cd cd 3f 57 dc 15 57 5e ed cb 3f
       0.2328326167803749 0.21818141224113916
000730 c8 6d 7f 2b e9 99 ba 3f 7e fd ce bc b1 fd c6 3f
       0.10391099273640869 0.1796171352307105
000740 8f 5c ec ce cc 37 a4 bf 2d 12 05 80 d4 05 d6 bf
       -0.03948822046202693 -0.34410583974775727
000750 1b f3 14 25 b1 56 d7 bf 79 40 a5 15 b0 cb 87 bf
       -0.36466625806115055 -0.011618972454613396
000760 cb 1a bf f8 c0 6f a4 3f 49 c4 d4 8c c9 96 7e 3f
       0.03991511379677134 0.007468020730173449
000770 99 97 05 68 3a 02 cf 3f 97 ee f6 b9 d5 4f ac 3f
       0.24225549773398994 0.055296591711763536
000780 c5 3e b0 22 0c c7 cf 3f a7 27 e5 99 83 aa ce 3f
       0.24826194471142152 0.23957867636118843
000790 20 5e 69 66 76 c4 95 3f ed 0d 85 98 64 18 8c 3f
       0.021257257462222623 0.013718400864155956
0007a0 22 fd c6 c3 1e 2e ab bf 57 a3 9f 91 52 b3 76 bf
       -0.05308624400958652 -0.005542109045543273
0007b0 c4 8c 21 de 1b 04 d2 3f 95 5c 7d db 17 bc af bf
       0.281500784802301 -0.061981912177253275
0007c0 c7 71 21 71 c9 6e d6 bf c9 be d6 5d b5 03 b3 bf
       -0.3505118946830205 -0.07427533665645138
0007d0 ca 48 da e7 68 62 d1 3f 5a 81 d4 f9 40 7a 95 bf
       0.2716314567743551 -0.02097417378274833
0007e0 2a 34 65 c8 c8 e6 a1 bf d5 10 6f 2b e5 94 d7 bf
       -0.03496386953575155 -0.3684628414305398
0007f0 32 53 23 15 6e 50 ba 3f b8 31 7a 40 c9 c0 c9 3f
       0.1027897645574967 0.20119586609179207

layer1 f8 [64, 128]
000000 41 fb ce 56 59 61 b5 bf b9 00 af 8d cb dd b6 3f
       -0.0835166775641314 0.0893218251139868
000010 65 aa 27 0b b3 ed ca 3f 83 b0 cf 92 ff 4e c2 3f
       0.21037900967288006 0.1430358378269184
000020 62 82 e4 4e ce 48 ce 3f 88 e6 c5 15 42 51 d1 3f
       0.23659685947588388 0.27058460356020264
000030 00 e8 c0 9f 73 eb b1 bf 54 17 09 58 d2 a3 da bf
       -0.06999895715935622 -0.4162488803598212
000040 0d 23 9a 65 95 05 b9 3f 2c cb a1 20 b7 6b c6 bf
       0.09774144869346575 -0.1751622113548249
000050 48 ef fa b7 02 db e0 bf 74 d2 76 8a 4e 43 b4 3f
       -0.5267346948016689 0.07915202026817686
000060 ea 2a 0d 9f 3e 63 d5 bf 31 5b 2e aa 21 82 cb bf
       -0.33418241054884723 -0.21490879830954548
000070 85 ee d5 70 92 dc bb 3f 23 b3 ee b8 14 4e ba bf
       0.10883441214348906 -0.1027539206977051
000080 1f 2c f5 ed ba 16 cc bf 7e 1d 4b 2a ae a0 d7 bf
       -0.21944367045429744 -0.3691821492215793
000090 dc df e7 6c 71 df b7 bf 9f 95 f9 51 f6 d1 d8 3f
       -0.09325322064239522 0.3878150749718205
0000a0 59 22 d8 f1 f9 86 d1 3f a9 7e ed 35 8a ed a1 bf
       0.2738633023987283 -0.035015410502407925
0000b0 7c 5c 01 f2 d6 0f d0 bf c3 22 83 7f 44 ca b3 bf
       -0.25096677430469305 -0.07730510819522877
0000c0 a8 c9 01 e8 92 52 ba bf 6e cc 57 c0 67 66 a6 bf
       -0.10282247699959746 -0.04375004027306138
0000d0 d9 43 44 d0 7a f1 c8 3f 9c 87 4f 8c ad 66 d2 bf
       0.19486937684317132 -0.28751696302617247
0000e0 d5 9f dc 51 53 9a d9 bf c8 bd 3d 87 08 d2 c9 3f
       -0.40004427904432066 0.20172220805714702
0000f0 b1 95 f2 9c c7 0e de 3f 00 1c 5d 90 cd 8c cf bf
       0.46965208365358097 -0.24648446606644825
000100 a7 5f 63 09 0f f4 ba bf d5 f6 52 7a e9 02 a5 3f
       -0.10528654078677722 0.04103784197057584
000110 f7 ab 43 07 9e 87 dc bf d5 86 7d 8a b8 00 b9 3f
       -0.4457774229946944 0.09766724949943335
000120 be 61 2c c0 04 e8 e1 bf 67 df db b0 e8 42 b6 bf
       -0.5595725777994216 -0.0869584495338792
000130 0d 1c d0 18 2f 0e 9f bf fd 8f 1e 38 51 ff 8a bf
       -0.03032754506059736 -0.013182291531684593
000140 c7 56 0c c0 20 fb d3 3f 97 f1 f2 8f 26 4a dd 3f
       0.3122026324721045 0.4576507955314581
000150 b8 bb 5c 14 5a 0c e6 bf 65 38 9c 3b e5 f7 b8 3f
       -0.6890077970218647 0.09753258424118057
000160 20 c4 06 dd 56 46 d3 3f 1c 40 83 01 a0 00 9e bf
       0.3011681707822067 -0.02929925927384157
000170 9c 92 e9 55 71 77 d5 bf ee f4 ef ad fd ed c0 bf
       -0.3354152049053398 -0.13226290696176285
000180 63 b7 1d b5 86 46 cf 3f 78 6a c7 a7 cf cd d0 bf
       0.24433978885229654 -0.2625617159334648
000190 91 f3 a4 b8 45 c8 b1 3f 8c 26 b8 23 6b f8 a8 bf
       0.06946216352385039 -0.04877028285052373
0001a0 58 c9 dc 22 df b3 d6 bf 6e ce 39 98 14 69 b2 3f
       -0.3547284927800738 0.07191590038729043
0001b0 09 3b 3f bd f1 fb c3 3f 34 69 cf 36 b8 a3 b3 bf
       0.15612622967315584 -0.07671691263332009
0001c0 b0 67 b0 e8 16 01 c9 3f a9 1a 46 57 8a 13 d8 bf
       0.19534574853679265 -0.3761926510127674
0001d0 da d6 2c bb bc af c9 3f 89 f5 7f 3f 95 04 92 3f
       0.20067557467853342 0.017595607758257557
0001e0 ac 53 5b f8 59 cd c9 3f d9 5b cd 8f f6 fd d3 bf
       0.20157932879251683 -0.31237567942792804
0001f0 b6 52 bd e8 26 f2 d5 bf 53 54 bb 05 65 52 9e 3f
       -0.34290478447409656 0.029611185526693905
000200 fd 27 ae f3 ef 36 c8 bf 1d 9e ca 32 86 5a c9 3f
       -0.18917655371143374 0.1980750797276735
000210 6e e9 f4 cd ed cc c1 3f c5 26 42 60 e3 9e d0 3f
       0.13906643444517947 0.25969776535258077
000220 7b 94 3d 8a d7 ba 62 bf 43 26 d4 6a 49 c7 c0 bf
       -0.0022863588109652256 -0.13108175007100628
000230 6d b5 d0 6e f4 77 b6 3f 74 34 35 88 63 b9 ca 3f
       0.08776786523295295 0.20878261709950474
000240 dc e8 5e 9a d3 34 b8 3f 7c aa 48 38 85 55 a2 bf
       0.09455606955353651 -0.035808718796336486
000250 1a 0f 02 ed 9e 9b b5 bf 3c b2 d1 b8 c3 5d c2 3f
       -0.0844058350212972 0.14348646664019948
000260 ff 93 f3 8d ca 44 d4 bf 11 e8 01 f9 68 52 d0 3f
       -0.31669868338059354 0.2550299102509835
000270 76 8f 1a 5a a0 b6 d2 bf b0 dc 78 c5 bd ff ac 3f
       -0.2923966293258141 0.056638651233180126
000280 c4 2b 6f d1 00 13 c0 bf f4 4d 28 7b 2e c1 c3 3f
       -0.12557993150980284 0.15433293355509614
000290 91 58 d3 4f dd e2 da bf d7 b3 c9 c4 14 02 a0 3f
       -0.420096710161837 0.03126587774463701
0002a0 b0 68 93 a2 1d d4 d6 bf 9a 33 82 0b d5 6f 7d 3f
       -0.3566965186743216 0.007186729628426836
0002b0 2a 8f c0 7a c8 13 c4 bf e3 3e bf 9f 2c ed b5 bf
       -0.15685373300322542 -0.08565024280619186
0002c0 ea 74 90 eb fe 54 b5 3f ee 87 5c d5 9c 44 cb bf
       0.08332818270760681 -0.21303139131583698
0002d0 95 64 a7 af a7 59 7c 3f 7a 58 c3 44 a9 1e c5 bf
       0.006921439193740349 -0.16499820573398322
0002e0 18 a5 4c a0 20 d9 a6 3f bb fd d8 95 1d 5b d7 3f
       0.04462530094890321 0.3649362529140167
0002f0 3d 5b f3 cb a7 53 c0 bf 93 66 b0 fe 2a 43 bd 3f
       -0.12755296190763402 0.11430615156168704
000300 99 02 ac 80 75 8b d6 3f f8 fb d2 ec b1 01 cb 3f
       0.3522619015275637 0.2109892279022174
000310 c0 71 13 07 ef 89 c2 bf 45 da 6f b1 98 d6 cf bf
       -0.1448344025183257 -0.2487364641562683
000320 12 f9 c3 d2 d3 2d d5 3f c0 2a 73 06 71 e9 c3 3f
       0.33092208464212647 0.1555615693562995
000330 6d 80 4a 82 2c 0c ca 3f 51 8b ab 85 af 1a cc 3f
       0.20349651681772532 0.2195643809019097
000340 e7 94 ae a1 df 43 df 3f af bb 53 5c 52 52 cb 3f
       0.4885176733899485 0.2134497595611413
000350 a0 a1 6a a1 8d 9c 58 3f 55 76 30 d4 e9 3b cf 3f
       0.001502168952052775 0.24401591168218553
000360 81 76 bd 4e e1 a2 d2 bf 6c 4a 0b 13 84 11 b7 3f
       -0.2911914128252207 0.09011102166122392
000370 c9 f3 46 a2 77 00 c7 bf f1 3c 12 d5 d0 b2 a1 bf
       -0.17970176147164654 -0.034567380914376396
000380 db ce a9 b5 58 6d c0 3f d6 e9 28 6c 1a 94 c0 bf
       0.12833699102667748 -0.12951975136986843
000390 5f 24 c3 c9 90 bc c4 bf d8 00 50 2a c9 2e c0 3f
       -0.16200456477807543 0.12642778936424892
0003a0 e8 98 5d 3b c9 f2 a3 3f 1c f4 10 8a 8b 7c bc 3f
       0.038961685654429534 0.11127540703542177
0003b0 fd 71 e7 a9 9c 6d e0 bf 80 3e 11 f5 f2 35 db 3f
       -0.5133803671301959 0.4251677888141572
0003c0 2d 7b 98 c4 84 b2 c5 3f de 73 16 d9 3d 62 a4 3f
       0.16951045607944462 0.03981202387806325
0003d0 29 33 bd 95 0f 8c e0 bf c3 11 16 58 d6 69 aa 3f
       -0.5170972752181103 0.05158872437735653
0003e0 89 2d 11 07 44 6d d2 bf 45 1c d1 9e 85 76 c7 3f
       -0.28791905107637966 0.1833045030091133
0003f0 bf 10 0f 07 a8 51 e1 3f 90 f7 6c 8b e0 92 b3 3f
       0.5412178171032095 0.0764599171061191
000400 32 a7 3d 3c 21 2a d0 3f a6 83 79 9b 58 d0 b8 bf
       0.2525714004792575 -0.09692910953300657
000410 bb fe 79 2a b2 4f 8c bf 10 de 2c b2 02 3a c5 bf
       -0.01382388298156855 -0.16583284091915163
000420 5f 40 56 fc b3 7a 96 bf 6c 2a 3e 37 56 1e e4 bf
       -0.021952450062201808 -0.6287032202684038
000430 43 6f 38 ec f0 82 a0 bf 8c 80 85 b6 73 75 c3 bf
       -0.03224900134611499 -0.1520218507021166
000440 9e f9 d0 2b ce 66 e0 3f 10 80 2f 34 1a 09 96 bf
       0.512549481943825 -0.021519097743180338
000450 cf a3 40 44 a2 11 ca 3f e0 13 8a ef 55 49 c5 bf
       0.20366314251557902 -0.16630052753694624
000460 25 66 4c 60 25 be da 3f 5f 4c ec 7c 22 c9 b6 3f
       0.41785559085983187 0.08900657224539675
000470 62 b9 43 bd 69 3c c3 3f b4 ea b6 96 fd c0 c3 bf
       0.15028115979607565 -0.15432710513217318
000480 9e 88 4f 0c a5 37 d0 3f 32 5d d0 7e 3c 71 a5 bf
       0.2533962841245144 -0.04187954948445806
000490 d9 ef 03 a6 3e cc e0 bf ca 4e d9 76 4f 81 a0 3f
       -0.5249322168815481 0.032236560113827986
0004a0 47 7a cf 18 03 be c8 3f e4 66 c4 b0 da 81 ce 3f
       0.1932987090248892 0.23833783751688664
0004b0 87 b5 31 c6 d3 43 e2 bf ea 11 a9 e5 d9 05 c3 3f
       -0.5707796927433016 0.1486160632504288
0004c0 33 f2 09 40 61 dd d2 3f fd 8e a3 82 9f 3a d0 bf
       0.2947619557742513 -0.2535780692835344
0004d0 d1 e9 21 25 fc ce c7 bf fd b1 ab ab b5 2d cb bf
       -0.18600417912587244 -0.2123324478374257
0004e0 2e b6 31 55 ea ee d4 3f 5b fd c3 e0 2d 69 d4 3f
       0.3270822364782785 0.31891962957157255
0004f0 79 78 39 48 43 b1 c5 3f 84 cc 42 5d d1 bd c9 bf
       0.169472131982676 -0.2011052804351473
000500 0c 92 06 cc 3f 27 b0 bf 64 31 9e ad ac d1 a4 3f
       -0.06309889536948549 0.040662189668270426
000510 93 5d 85 51 69 72 e1 bf f4 40 fb 16 94 39 c2 bf
       -0.5452162353712303 -0.1423821556295547
000520 2f 40 4d 4c 05 0c ce 3f 47 6f 31 fe 64 95 d4 3f
       0.23474184251472383 0.3216183168749364
000530 58 ee 8e 3e d2 79 a5 bf 4e ea 8b ed 0c d0 cb 3f
       -0.04194504750873013 0.21728669737770406
000540 a0 47 50 e3 25 26 e3 3f b6 cb cd 83 58 20 c2 bf
       0.5984067382544147 -0.1416121142934494
000550 fe a7 05 f7 54 c5 ce 3f f7 bc fc 68 94 f0 a7 bf
       0.24039709149957383 -0.04675735265333885
000560 34 63 56 92 a1 86 cb 3f 99 ec 99 2a e4 40 97 bf
       0.2150461163080536 -0.02270847806947227
000570 97 0e 72 e7 7d b4 d0 3f 7e b1 2a 18 ca d8 d1 bf
       0.26101634599783935 -0.27885677681003773
000580 56 93 ac aa 28 48 d2 3f 74 87 1f f2 30 6c d2 3f
       0.28565422694582787 0.2878534664615622
000590 7f 29 ce eb 23 48 d1 bf 7b 3c 0f c1 5b 47 cc bf
       -0.2700280955110869 -0.22092768599256715
0005a0 70 d3 13 62 c3 74 d3 bf a8 ef 1a 3a 94 39 85 3f
       -0.3040016610896634 0.01036372949908311
0005b0 00 4a 02 46 6b 44 a7 bf a3 15 4b 42 8e c5 d4 3f
       -0.045443870826733956 0.32455784295992823
0005c0 84 ff bd 21 3d 9a b7 3f fe cd 80 b6 da f2 c8 3f
       0.09219724725516981 0.19491132651602067
0005d0 29 fe d9 11 a8 b1 b3 bf 19 0d 6f 28 f0 1e 9d 3f
       -0.07692957340076902 0.02843833205021182
0005e0 17 85 bd 9a d2 a3 b5 3f d3 6c 8e 35 6e f0 d3 3f
       0.08453098562087678 0.3115497134219371
0005f0 6e 8a 2b 8f e2 82 cc bf a3 d5 c3 80 05 33 ca 3f
       -0.2227442931244527 0.20468205249168844
000600 aa 7a 07 77 8d 10 d3 3f ce 56 7f c2 06 00 c4 bf
       0.2978852903742487 -0.15625080582565548
000610 32 7d 80 75 9c b8 c1 bf 4d f6 6a 4a e4 11 c9 bf
       -0.13844638574026075 -0.1958585131996408
000620 a7 21 06 2c 2b 8a be 3f 6b d5 fb 4f 8c fb cd 3f
       0.11929578614047519 0.23423913865523657
000630 17 44 fd 7d f8 21 b1 bf 79 fe 02 b0 61 c1 c9 3f
       -0.06692460132514132 0.2012140378410441
000640 d0 5c 12 7c fa 9a d1 3f 87 be 79 7a a5 99 d9 bf
       0.2750841342580772 -0.40000283203605885
000650 59 6d 2d 0f 87 85 aa bf b6 62 d9 4d 9e 4b e3 bf
       -0.05179998455306629 -0.6029807587138609
000660 b8 3a 6b 09 24 66 d3 3f c8 bd ae e5 17 a0 be bf
       0.303109177778349 -0.11963033063397355
000670 cf 16 75 84 d8 e8 c0 bf 73 2a 66 e4 76 db c5 bf
       -0.13210588901181672 -0.17076002266215404
000680 aa cf a5 9a 1c 26 b7 3f 11 97 73 d1 9c 6d e4 bf
       0.09042528892115223 -0.6383804407930446
000690 1a a1 7f ec f4 84 db 3f 8f aa 24 a5 47 45 d5 bf
       0.4299900350147411 -0.33235350730198204
0006a0 a4 30 78 4b c2 67 c2 bf 0d 30 9d 68 66 d2 ce 3f
       -0.14379147229226874 0.24079589946848082
0006b0 be f7 7a b5 a8 dc b3 3f 3a c4 9e 4c 34 de d3 3f
       0.07758573942825728 0.31043727381171815
0006c0 52 02 e0 32 3c a2 b7 3f 9f f6 20 77 59 d7 b9 3f
       0.09231926195207876 0.10094222219864911
0006d0 4c 01 2b d9 bd 81 bb bf 3b 50 5e 67 d6 44 c6 3f
       -0.1074484496302876 0.17397575423513154
0006e0 27 a2 08 ff f5 9b c3 bf 7d 9b 62 1f a1 bf d1 bf
       -0.15319704964464728 -0.2773211294647167
0006f0 08 24 c5 58 99 ba 94 3f 1d 6f 12 d0 ba a2 b7 bf
       0.020243068736167685 -0.09232680873759276
000700 a3 e3 0c 09 fb 34 c4 3f 76 be 21 f2 d7 a5 dd bf
       0.15786683980857416 -0.4632472862785798
000710 c1 8c 0b 1d af e3 be bf 81 a8 16 7a 11 c6 de bf
       -0.12066168269261636 -0.48083912775712895
000720 57 5a b8 53 91 57 c3 bf 10 57 c1 de 1b 75 ab bf
       -0.15110985362908266 -0.053627844754983056
000730 0e 1e e6 8a 02 2d d1 bf 64 15 f4 41 65 9f d4 bf
       -0.26837218822808573 -0.3222287315441774
000740 b3 58 4f cb 9c 74 b1 bf b0 ce ec d6 68 c0 d2 3f
       -0.06818561519262083 0.29299374569675773
000750 c8 bd f2 56 c8 1f a2 bf a4 5d 5d 7e ec dd c8 3f
       -0.035398731817049944 0.19427257700111256
000760 15 f3 8d 81 6f 3f d7 3f 46 06 b9 46 32 fd d1 bf
       0.3632467999630518 -0.28107888132590053
000770 7a 99 77 4b 30 17 b0 bf ab 7a c3 4f 3c aa b4 bf
       -0.06285383074246012 -0.08072258899071964
000780 b3 17 33 59 75 be cc bf a1 2f 7e 05 2b a1 d4 bf
       -0.22456232886741886 -0.3223369172708264
000790 14 f5 a2 66 65 4c d5 3f 77 28 cf 2b 12 26 d4 3f
       0.3327878477392272 0.3148236682724312
0007a0 9e 12 66 d4 b6 5e c3 3f 04 33 a3 8c 34 d4 bf 3f
       0.15132794734031035 0.12433174546749731
0007b0 c1 8b f8 c3 64 9a cd bf df cb 68 cd ce d9 e0 bf
       -0.2312742192162585 -0.5265878688718394
0007c0 ae 05 7b ed aa 10 b6 3f 76 bc 9f f8 ab 28 ce 3f
       0.08619182870736239 0.23561620368807085
0007d0 72 a7 97 5e e7 9a d9 3f e4 81 15 82 6d f7 b9 3f
       0.4000795768503088 0.10143169809226255
0007e0 2a 1c e0 88 16 1b b7 3f dd 96 69 fb 66 7a b3 3f
       0.09025708047566697 0.07608646047591656
0007f0 3a dc 98 8f 1a 5b cf bf 39 7e 5a 5a b0 a3 ca 3f
       -0.2449677659185186 0.2081203881434577

layer2 f8 [10, 64]
000000 be 45 00 3a 2b cd d8 3f 81 bb ed c5 e0 38 d7 3f
       0.3875225130478518 0.3628465588471315
000010 2a 21 80 cf 82 39 c6 3f 04 05 0a 87 67 a1 d7 3f
       0.17363009578571936 0.3692263430348961
000020 ce 8f d4 d2 77 7b cb bf 99 29 ca 6a 90 0b b7 bf
       -0.21470544619034942 -0.0900202046124491
000030 d6 e0 90 6b dd 37 be bf 73 92 a3 02 a0 58 b0 3f
       -0.11803993106957775 0.06385231079509328
000040 42 15 a7 2d 01 e3 d6 3f 6b a1 f2 6c eb 8a a6 3f
       0.3576052614046895 0.04402862267426396
000050 ec 81 75 eb df 17 cd 3f 15 e3 9c 7f 6f 2c e0 bf
       0.22729109761259225 -0.505424260371998
000060 da 4c 63 48 21 59 e1 bf 66 00 ea ec dc 9a 8c bf
       -0.5421301282716755 -0.013967252712291333
000070 29 e4 b8 a2 38 0f cc 3f 0d 33 06 ce f7 ec d3 bf
       0.2192145151655336 -0.3113383781390418
000080 fd 94 1d 09 00 94 a5 3f 69 71 aa cc 91 95 90 bf
       0.042144776451815226 -0.016195562474068313
000090 74 5f 9c 23 98 fd be bf 6b a1 bc b5 b7 ef d4 bf
       -0.12105704183011118 -0.3271312021993455
0000a0 e2 90 f4 47 cd 59 c2 bf 74 c1 a1 a4 24 60 b0 3f
       -0.14336553586429718 0.0639670278485534
0000b0 39 e5 49 3a 25 c1 b2 bf 6d 28 08 09 38 15 e3 bf
       -0.073259665232304 -0.5963401962665223
0000c0 42 9f 77 15 ac 8a a5 3f 51 83 23 7a 85 7d c9 bf
       0.042073609943882775 -0.19914310897641
0000d0 62 22 f2 6d 21 21 e1 bf 22 75 e6 d7 e6 d1 bc bf
       -0.5352942607288009 -0.11257784625054915
0000e0 66 26 55 d3 1e a5 cf 3f c1 86 8a 90 9a a8 a1 3f
       0.24722657507873008 0.034489469665698554
0000f0 a9 3b 1a 93 a6 6a b8 bf 8f 9f d9 56 6c 83 e4 bf
       -0.09537736026162115 -0.6410428711214865
000100 c9 40 b5 60 8a 1d d1 bf 4c 93 54 72 23 92 db bf
       -0.267428011361528 -0.4307945839412255
000110 2a a4 c4 fd 68 e2 df bf 25 75 62 94 0a 53 96 3f
       -0.4981939771847147 0.021801152521779294
000120 0c e7 66 ce 85 d6 9a 3f 5d d4 06 ce 54 90 d9 bf
       0.026208964083458006 -0.39943428153794064
000130 78 e1 9b 44 f3 fa c0 3f 5b 06 fd 81 a4 50 bd 3f
       0.1326583943371238 0.11451175855202093
000140 49 47 2c a0 39 c6 b2 bf a1 10 28 96 83 e2 9a 3f
       -0.0733371749923012 0.026254707374406498
000150 ef 1e af e2 3d 1a cb 3f c6 82 1b 75 6e b6 80 bf
       0.21173833435590647 -0.00816046042331332
000160 b9 51 ad d0 19 ae c0 3f 12 28 21 55 c0 63 dd 3f
       0.13031313599880237 0.4592133361189791
000170 2a 2e 45 41 75 e7 da bf 0f 84 64 a2 1f 7e e4 3f
       -0.4203770768551488 0.6403959438067676
000180 7c 6e f3 a0 a9 9e d1 bf 0a dc d0 77 95 04 c9 bf
       -0.27530899732457903 -0.19545238829024952
000190 aa 8f c0 8a ce 66 eb bf 28 92 84 b0 4a 0b da 3f
       -0.8562996587756875 0.40693919408866686
0001a0 4d c2 e5 64 1e aa e0 bf 5d 9c 7b a1 83 da e8 bf
       -0.5207664461759777 -0.7766740945779805
0001b0 21 39 fb 32 ee 01 cd 3f 44 10 7a 64 81 67 da bf
       0.22662141312907472 -0.4125674706667761
0001c0 7c dd 6f 28 8d e9 e7 bf 31 80 13 e0 1e a4 d9 bf
       -0.7472596921715389 -0.40064212686957307
0001d0 b7 c8 5e a6 a8 5d d4 3f 8f 3f 33 37 dd 18 d2 3f
       0.3182164787969088 0.2827675856651632
0001e0 64 57 b0 88 85 ef b6 3f 93 ae 37 b7 df 63 ee bf
       0.0895923098290417 -0.949691636892981
0001f0 de b8 29 da 29 59 ca 3f 3b 28 85 ac 43 2e cb 3f
       0.20584605362404934 0.21234937595210276
000200 da 0a e1 9b 15 70 e1 bf 8f fc 8f 0e 74 e8 aa bf
       -0.5449321789277193 -0.052554728295938984
000210 72 d8 7c fb a2 4d bc bf 2b f6 74 91 2b 8f e7 3f
       -0.11055964126430398 0.736226829619857
000220 9a 97 f1 e8 57 86 a8 bf 8e 9f bd 16 3a 45 d5 bf
       -0.0478999587874533 -0.33235027523777994
000230 a5 e0 3a 8b 2e fc db bf 6c 06 61 02 07 76 d9 bf
       -0.4372669562976717 -0.39782881958317406
000240 a9 2e 8a 6d bf 93 ab bf 58 9e c3 6f 94 3e d7 3f
       -0.0538616009917779 0.3631945697256689
000250 4e ef f2 25 19 27 d9 3f 89 37 3e f8 db 3b e1 3f
       0.3930113669009544 0.5385570381638313
000260 c1 59 57 df 6d e7 d0 3f 17 0f db 6a 6a 17 57 bf
       0.26412531672158585 -0.0014093913300010136
000270 03 f8 29 08 9b a5 cd 3f 3a fa 20 0c 87 77 cb 3f
       0.23161638163213646 0.21458519069888543
000280 43 06 e3 41 83 1c a5 bf 8c e7 69 b9 03 24 c9 bf
       -0.04123315982134248 -0.19641157678034593
000290 de 9d 09 8a b1 cb c6 bf c3 3a 8a 87 eb 4f de bf
       -0.17809123268237576 -0.47362793194126257
0002a0 cf 8c 0b c2 68 8b b6 bf a5 3b 09 9a 55 f9 d6 3f
       -0.0880647157423937 0.35896816294273953
0002b0 76 ba 43 8f 46 a5 a2 3f d8 b6 1e f5 79 57 d1 bf
       0.036417202938413704 -0.2709641355275898
0002c0 50 e4 d5 0a fe 46 d7 bf 2e 12 85 3a f0 6c b0 3f
       -0.36370802934795154 0.06416226795870081
0002d0 ed 71 e8 dd 10 5b d9 bf 8a 75 48 43 8e 33 bc 3f
       -0.3961832205839347 0.11016167776729993
0002e0 7d f8 ee 2a fa 1c df bf b5 8c 98 36 7d 86 d1 3f
       -0.4861436290046937 0.27383356410627907
0002f0 95 19 00 93 ad 9c c0 bf 0d 58 ed 75 09 ea c9 3f
       -0.1297814338469833 0.2024547410789527
000300 22 cb b7 fb 33 1d a9 bf c4 70 3f 62 06 74 d3 3f
       -0.0490509266636734 0.3039566001368821
000310 07 a9 34 55 58 00 c6 3f 8f fb 47 26 f3 31 e0 bf
       0.17188553009447835 -0.5060973880462017
000320 f1 2d 6e f9 3c f2 e6 bf 15 c1 84 36 b3 9e c4 3f
       -0.7170700904547954 0.16109314119376764
000330 64 19 93 47 9d 72 a5 3f 0c b6 d4 06 18 6c e6 bf
       0.04189006327355818 -0.7006950505653449
000340 88 db 25 f3 bc b0 c7 3f e6 f4 5f 70 5d 2a e6 3f
       0.18508111832099083 0.692671508295146
000350 41 5a 35 b6 3f a2 dd 3f 41 6d 57 2e aa 19 e5 3f
       0.46302788537778744 0.6593829064471849
000360 2d 7c 99 dc e6 d9 df bf 2c 75 2b c9 8b fa 89 bf
       -0.4976746706287852 -0.012684909893716588
000370 9e fd 28 8d 1c 6b e2 bf ab 36 7b 13 7f b3 d6 bf
       -0.5755751378091423 -0.3547055902716731
000380 97 ff 7b de 92 82 c3 bf 16 72 cd cc 59 79 dd 3f
       -0.15242229331488197 0.4605316638970022
000390 75 1a 8a 2d a4 bd ec bf 22 f2 5a e3 b8 2a cb bf
       -0.8981495751803111 -0.21224127866106907
0003a0 e0 62 4f 7c dd dc 91 bf f1 f0 e8 99 e6 4e d6 3f
       -0.017444096290861633 0.34856572180048234
0003b0 0a b3 97 a3 ea fb e1 bf cd 32 e3 53 4c c2 b1 bf
       -0.562001533047437 -0.06937100456270713
0003c0 a9 9e 52 b6 3d be e3 bf af 00 c5 03 ef e2 ab bf
       -0.6169727860442055 -0.05446574135794557
0003d0 f9 31 10 80 4b 61 aa 3f 91 c7 7b 44 e6 08 bf 3f
       0.05152355135223625 0.12122954532585896
0003e0 bb d3 c7 49 4a 0d c0 bf 18 0a 28 ec ea fa e3 3f
       -0.12540558435980906 0.6243795978955999
0003f0 7f d7 93 ba 79 32 e5 bf 00 67 65 24 e6 78 d4 3f
       -0.6624115604488309 0.3198790889197056
000400 20 24 37 2d 08 61 c1 3f be b9 14 cc ef 89 c7 bf
       0.13577367980750044 -0.1838969942559298
000410 4f 08 77 69 51 0e b1 3f 06 c7 63 d7 37 11 cd bf
       0.06662472557857878 -0.22708795563772116
000420 d0 0d 25 0c a7 62 d1 bf 9e 26 c4 16 ff 36 c3 bf
       -0.27164627252588236 -0.15011585818893008
000430 eb a0 29 47 51 3d a3 3f 5b fd d0 4a 40 de c1 bf
       0.03757719033893799 -0.1395950665773665
000440 16 ab c7 dd 0d 88 e6 3f 4d c8 56 27 3e e9 ee bf
       0.7041081744804127 -0.9659720199908947
000450 15 00 ee 6b 42 a6 cf bf 26 d1 ea c3 99 51 bd bf
       -0.24726133604053815 -0.11452637704025345
000460 61 11 2a 88 65 e7 b3 3f cd 41 5e 5c fd 9c b3 bf
       0.07774958204578787 -0.07661422257502366
000470 ef ab 18 c9 c1 48 e6 3f 8c 3f 07 be b6 94 a2 bf
       0.6963814666427178 -0.03629084653550682
000480 35 29 5d 06 3f 3e ba 3f 3b 41 87 46 14 ed f0 bf
       0.10251230149620912 -1.0578806643498655
000490 6f 9d 85 13 9a f9 90 bf 8f 77 95 61 d9 33 b4 bf
       -0.016577155534290563 -0.07891615517061566
0004a0 c8 12 48 59 83 6c d0 3f 4d 71 77 a4 b5 76 d5 3f
       0.2566231128587728 0.3353704553717492
0004b0 f0 01 a0 2d c9 5b ce 3f ad b5 62 60 2f f6 c3 bf
       0.2371760819223847 -0.1559504719383943
0004c0 03 28 8a 8f 13 52 d4 bf a9 9b 5b 17 3e 67 d2 3f
       -0.3175095464472408 0.28755142479934165
0004d0 54 8f 3c 0a 4d 22 c1 bf 6e 0b 37 c0 f5 57 7f 3f
       -0.13385928153831606 0.007652244533747117
0004e0 05 ff ef 4c 77 84 95 3f 20 16 7a 83 57 71 8f bf
       0.02101313025559561 -0.015352901172501154
0004f0 1e 09 b1 28 fc 14 dc 3f 30 78 b4 42 5c 67 c6 bf
       0.4387808225038884 -0.1750293088634307
000500 a8 93 56 0c 0c 30 a2 3f a9 82 9e d6 d5 1d de 3f
       0.03552282000172308 0.47057100256828704
000510 a9 2b 05 cd f0 f8 d8 bf 3c 69 96 9f 03 58 ca bf
       -0.3901941301489225 -0.20581097881660948
000520 05 c7 c3 6a 23 53 cc 3f 13 be 77 f5 e9 1d e3 bf
       0.22128718102572278 -0.5974015993396641
000530 a1 6d 15 5b 18 52 c5 3f 99 ce aa a7 a5 28 c7 bf
       0.1665678448433541 -0.18092795073390702
000540 65 74 f8 b1 1f dd d6 bf de da b0 90 11 bd e8 bf
       -0.35724632625517067 -0.7730796648018801
000550 e2 9d ca 5e bd 04 c1 bf c9 9a c3 40 3e c4 b3 bf
       -0.1329571450089438 -0.07721318322328864
000560 64 36 91 29 9d a9 d2 bf 21 ea 97 12 53 0b d0 3f
       -0.29160241183567437 0.25069119277728374
000570 ed ed b0 ca 19 e4 97 3f dc ca 6b 3b 3d 3d c5 3f
       0.023331072803768938 0.16593137170237682
000580 17 ef 49 23 12 b0 c9 3f 10 4c c1 b7 31 cb d2 bf
       0.20068575594984203 -0.29365199036436795
000590 c9 b5 b6 85 ad 5e ec bf 76 bb 76 07 f2 cc b8 3f
       -0.8865573512645649 0.09687721903058652
0005a0 ae 98 48 f9 f2 ce cc 3f 63 6d 12 60 cc 39 cb 3f
       0.22506558582353392 0.212701365385196
0005b0 46 2e e2 fb 45 dd bf 3f 9a 66 fc 64 77 1e d9 3f
       0.12447011374950376 0.39248452054889926
0005c0 da 27 0d 24 52 2e aa bf 4d b4 1e 44 29 f1 eb bf
       -0.05113465013580738 -0.8731886225192597
0005d0 bb 51 9e 8b 1a 14 c8 3f 64 45 51 de bd df 8a bf
       0.1881135160189283 -0.013122065875139817
0005e0 d4 b3 8f 84 f2 92 e0 3f 52 9f 6a b7 4a 12 e5 bf
       0.5179379071320178 -0.658482893214549
0005f0 27 4e 1c a8 fa f9 d4 bf 2e e7 25 8e 2b 5a c2 bf
       -0.32775751511619194 -0.14337677422354872
000600 86 0c 25 ec f6 d5 cb 3f c0 2d ec 62 f9 05 c1 bf
       0.2174671795893099 -0.13299481706813587
000610 3b a4 80 30 d0 83 d7 3f c9 d1 98 bc c3 11 93 bf
       0.36742024170468185 -0.018622454057735802
000620 2e aa 7d fb a2 21 eb 3f 06 7c ed 69 6e d8 d3 bf
       0.8478560363703929 -0.31008491844653496
000630 16 ad 5e 8a 0b fb ba bf 0d e8 11 07 dd 48 bd 3f
       -0.10539314392251628 0.11439305708509569
000640 9e ac 20 80 ee ea d2 bf ed ad d5 be 77 a8 d6 bf
       -0.2955890895124841 -0.3540324557895634
000650 4a 43 7a 8b 3b cc b3 bf 65 7a db 97 4b ac b5 bf
       -0.07733509211744863 -0.08466026742414952
000660 2c 84 9b 40 87 ed c2 bf df 9d 14 11 d2 2d d4 bf
       -0.14787378935491924 -0.31529666584034816
000670 58 6e 01 26 f7 90 c0 3f 98 24 25 a6 9d 3f b8 3f
       0.129423993642251 0.0947207003238354
000680 db 28 23 35 74 78 b6 3f 9c 44 f9 19 9d b0 b4 bf
       0.08777548119829552 -0.08081991085170376
000690 0f 60 ad 48 86 bb c7 bf 31 d9 d5 98 1c 12 be 3f
       -0.1854102949971552 0.11746386271793054
0006a0 3f eb 6b 40 dd fd b9 bf 8b 01 38 5c 68 67 cb bf
       -0.10152991125862075 -0.21409325125570108
0006b0 64 f5 11 a9 45 df d0 3f 98 b8 5b 97 a6 a1 d9 3f
       0.26362744818455597 0.40049137860376893
0006c0 ee 4c 3e cd d2 46 e1 bf 5b 07 ab 6c f5 17 d2 3f
       -0.5398954399737741 0.28271232235066684
0006d0 88 f2 66 2b a1 6b cf 3f 1d 7f c8 94 94 8a e6 3f
       0.24547209376568824 0.7044165521547004
0006e0 34 44 86 2a b7 5f da bf 6c ee 91 b3 27 f5 dd 3f
       -0.4120920100477321 0.4680880788434709
0006f0 a9 db 65 45 c9 89 b4 3f 81 00 37 34 70 7b dd 3f
       0.08022745079311612 0.46065907572847925
000700 19 40 74 5e c9 8e d5 3f 66 f9 b3 3d d1 6c e6 bf
       0.33684000228913785 -0.7007833676469033
000710 1e 9d fa ad 4b 8d c1 3f 14 49 2a 19 82 be d5 3f
       0.13712450022760775 0.3397526975396812
000720 b9 fc d3 70 9a 8d 3b 3f 62 c8 4f 51 ec 74 de bf
       0.0004204275181364892 -0.47588642063704445
000730 04 29 4c d1 ac 81 b2 bf 31 d8 f7 15 5f 9e e1 bf
       -0.0722911845188357 -0.5505824498238835
000740 16 a5 91 95 19 c5 c9 bf 1c 5b d8 39 d1 54 d0 bf
       -0.20132751277132205 -0.25517683648051714
000750 f7 6d 01 03 a9 82 a1 3f 83 b1 68 72 05 e6 bf bf
       0.03419998323144207 -0.12460359614551035
000760 ee 1b 15 81 21 ff e3 bf 9b a8 ff 4a 1e 52 e0 bf
       -0.6248939057485339 -0.5100242104356484
000770 4a f6 92 2c c5 f6 d0 3f 9d 15 9c ba 10 72 d2 3f
       0.2650616584104212 0.28821199630359634
000780 dc 7c d5 1c 28 8b c2 3f fb e6 ae c0 1d bb c4 bf
       0.144871725157805 -0.1619603339038845
000790 97 1d 06 05 65 96 c2 3f bc 2a c0 a6 52 00 c2 3f
       0.14521467919642525 0.14063485281106647
0007a0 ef 46 1e 9e 04 52 c9 bf f2 27 30 e9 12 58 c6 bf
       -0.1978154918729653 -0.17456280122888718
0007b0 29 c3 7d 5b 48 1a c6 3f 82 7a af 5e 8e ec bc 3f
       0.17267708270403517 0.11298456012398542
0007c0 fe ef b6 02 cb 2e 55 bf e3 8f 29 1e 00 bb c8 bf
       -0.0012928946042469742 -0.19320680115481456
0007d0 9c a3 d0 7c 19 3f c8 bf 27 11 0e dd 13 4c d5 bf
       -0.1894256457756257 -0.3327684077014674
0007e0 72 8c 84 75 3d 2d cc bf f4 33 be 1d 80 86 e2 3f
       -0.22013061750576274 0.5789185124318679
0007f0 39 82 1e a5 43 18 d8 3f c1 22 5c b5 69 b1 df bf
       0.37648097157401456 -0.4952034255116296
