model/weights.npz (npz, 874226 bytes, 3 tensors)

layer0 f8 [128, 784]
0	0xbfe0133d03f0ce7a	-0.5023484303441841
1	0x3fd3e105111df5ae	0.310609118190622
2	0xbfefdcae91e7e632	-0.9956887101863627
3	0x3ff0ebc1354a9844	1.0575573045439493
4	0x3fe8212fb269e255	0.7540510639801804
5	0xbfbbcbfcfd05e8a4	-0.10858136346169772
6	0xbff0d279deb425eb	-1.0513857554782315
7	0x3feaf54a2d258d16	0.8424425966044591
8	0x3fd00783b9a47510	0.2504586518205807
9	0xbff6f57b73fca2eb	-1.4349321871506457
10	0x3ffe7ff0810fd3e6	1.9062352220037098
11	0x3fffe9e610cdf8ae	1.9946041733196966
12	0x3fdd8384c4f18be7	0.46115226013915706
13	0x3feeb316ba1034c4	0.9593614229248932
14	0xbff855a69458ed2e	-1.5209108156985383
15	0x3ff3dba6bdca5e01	1.2411258138362202
16	0xbfe466fe0ec3327b	-0.6375723160104622
17	0xbfe73e9fb83edaa7	-0.7263945196671856
18	0x3fd40b3f79cbeaac	0.3131865205211095
19	0x3ff66e543e4090b2	1.4019358093001242
20	0x3fd6d89df3d5ca8b	0.35697125255607237
21	0xbfd3e15f6b1f10f1	-0.3106306596857982
22	0xbfe07bb98253d030	-0.5151031060654585
23	0x3fb9035ce5d5eb4b	0.09770756350728253
24	0xbfedd3f85c703625	-0.9321252637325342
25	0x3fb3c97c71b71e76	0.07729318405392313
26	0xbfe78037f002cda7	-0.7344016730989339
27	0x3fca25e3475f021d	0.20428124413412344
28	0x3fe403f823e88fd1	0.6254845334374243
29	0x3ff3668347f93c64	1.21252754320792
30	0xbff3101a4f2592e0	-1.1914313403769299
31	0xbfc12b0e130f6cfe	-0.13412643366505245
32	0x3fdcc4c0ded31881	0.4495088745137608
33	0x3fd00219f8d4fa05	0.25012826251978054
34	0x400082b0ca335830	2.0638137623709767
35	0x3ff1f035f3a7b5b0	1.1211452024248096
36	0x3fbbe38767a49e86	0.1089405658755088
37	0x3fee6cbf6cb830b7	0.9507748721530537
38	0x3ff3233c3cc1e926	1.1961023686731749
39	0xc0005fc90ff75ce1	-2.0467702147831095
40	0xbffe3ddf7c8c285b	-1.8901057114731177
41	0x3fe0c9b7bff126dc	0.5246237515322849
42	0xbfeefa0aa8cf4f5a	-0.9680226609293456
43	0x3fe2d55131d87a9c	0.5885396932170184
44	0xbf961d45b7e90e0a	-0.021596040105817983
45	0xbfec32bc0961590c	-0.8811931784828473
46	0xbfc171dc5337f635	-0.13628725112350684
47	0x3fe762c9f1ec39b6	0.730809185510046
48	0xbfe1c7ca221778cc	-0.5556383767941724
49	0xbffdcc6852bf478a	-1.862404177886193
50	0x3fcbce94e18f8299	0.2172418691034366
51	0x3fe6a54942918b20	0.7076765346685967
52	0xbff77a619a6e41ae	-1.4673782379578415
53	0x3fece0dc5b32c15d	0.9024488240448069
54	0xbfc9a03a5bb200c8	-0.20020226933775676
55	0xbffd8995736318b6	-1.8460897929485731
56	0xbfffafe3ab5c3cf5	-1.9804417318117065
57	0x3fe7ee98e7f25903	0.747875645657388
58	0x3fed3ba0609f98dc	0.9135286223579686
59	0xbffc0552d79c5da6	-1.7512997076317816
60	0xbff2fb6b788b70e4	-1.1863817890908246
61	0x3fd178e5644e22ca	0.27300391002112845
62	0xbfd548351f48408e	-0.33253219656854405
63	0xbff4fc2a3915c2b1	-1.3115637044794932
64	0x3fe743d6206f14d8	0.727030814502224
65	0x3fc462ab268c2382	0.15926112539480292
66	0xbfe4d325aed928cb	-0.6507748045926517
67	0xbff353d24883b298	-1.2079642136187996
68	0xbfe3d6bb565dc321	-0.6199623762932768
69	0x3ff1393d3402bf20	1.0764743835133643
70	0xbfd21421be4e75ef	-0.2824787481748378
71	0xbfe0b37047543933	-0.5219041245598305
72	0x3fec1c050463ef7e	0.8784203611134982
73	0x4000ec661e9f7d3d	2.1154291527197118
74	0xbfe78320cc7575c9	-0.7347568505608076
75	0xbfd50effb97babd3	-0.32904046166976036
76	0xbfb9e9f2d347dc51	-0.1012260213682208
77	0xbfe16832a6135ecd	-0.5439694636979425
78	0xbfcca5a6d78a9564	-0.22380528950194922
79	0xbff3f474d7aa3f3b	-1.2471817421355371
80	0xbfec6cdaefb0ade3	-0.8882879907081896
81	0x3fe86a86183116fe	0.7630033943648582
82	0x3ff0e6af88101dd0	1.056319743629377
83	0xbfd4fa451f5141b4	-0.3277752691110678
84	0xbfa0c7b3d1598ea9	-0.03277360849895434
85	0xbfdbb0cce3751482	-0.4326660367262961
86	0xbff2008a93e6b629	-1.125132158030633
87	0x3fe5435049cc0de4	0.6644669953679423
88	0x3ff296f433123525	1.1618539805379637
89	0x3fd9f95c69acf873	0.4058447868336607
90	0x3fdcd4a0c50cac04	0.4504777836143037
91	0xbff5ebdac7185248	-1.370081689562669
92	0x3ff4b9656fe3b13c	1.2952627535515395
93	0x3ff06fe82b936c85	1.0273210241491892
94	0x3ff7a6486b55f84d	1.4780964081578702
95	0x3fe4c182d701c845	0.6486219596247415
96	0x3ff55c3b27080898	1.3350173496878934
97	0x3feed82044e18680	0.9638825745898458
98	0xbfe5f793e438a4e8	-0.6864718873449904
99	0x3fe65cea715bebe5	0.6988422597927381
100	0x3fe9aa70d7048db0	0.8020557593885567
101	0x3fe7c45df7d4d77a	0.742720588727692
102	0xbfc3f2ccd627b25a	-0.1558471723250417
103	0x3ff8c7b23608c10d	1.5487539396963854
104	0xbfd91d27a1b759b4	-0.39240446846579435
105	0x3fe12f2effe5a16f	0.5370097158420729
106	0x3fe7383acd6ef77f	0.725613976704821
107	0xbfe16f22a69db0f3	-0.5448163274973282
108	0xbfe73e0f69964024	-0.7263257086033303
109	0x3ff5eb923f0b4be7	1.3700125181828697
110	0x3fe6f9d279bcdcfc	0.7179958703699465
111	0x3fd8d009ee8b3bfa	0.38769768042851604
112	0x3fa9b9ba39c7f9f4	0.050245112946857434
113	0x3fe422c96b8cb195	0.629246435220511
114	0x3ff30fe7fbadd50a	1.191383345719546
115	0x3ff115d2504b393c	1.0678275238493162
116	0xbfe56309184ab17f	-0.668339297718873
117	0x3fd249d52135666e	0.2857563804915121
118	0xbff2505eceb0c54d	-1.144621665367896
119	0xbfd877715d9f0644	-0.3822902120847156
120	0x3fe0f8788abc66b3	0.5303309163748139
121	0x3ffaad638f515b8a	1.6673312757827454
122	0x3ff6e347a9f8021b	1.43048826593452
123	0x3fef2ec8c34773f4	0.9744609655423333
124	0x3feb01d36c4c4c91	0.8439728846737059
125	0x3fd8ff7ef0de4a47	0.39059422991082154
126	0x3f91e0c3c7e979dd	0.017458972050343625
127	0x3fe67748caf333a2	0.702061077486736
128	0x3ff6d6ed6851b9fc	1.4274725031824564
129	0xbfc847770ae449db	-0.18968093902419877
130	0xbfee1ea106a4025d	-0.9412388925266658
131	0xbfb9c5d6704a0ef8	-0.10067501298368231
132	0xbfbb6381dc5bb095	-0.10698711042249649
133	0x3faa23cc3ac476bf	0.05105436532379092
134	0x3fb91db8e6748d6e	0.09810977579450306
135	0x3fe0709c2c7c7f5b	0.5137463444589047
136	0xbfe38fff2805b089	-0.611327722710045
137	0x3ffb20337c3955f5	1.695361600160479
138	0xbfe29871d02b7353	-0.5811089578452119
139	0xbff1d51260537831	-1.114519478105205
140	0xbfcace1a7bfa23a7	-0.20941477826661734
141	0xbfdedd0bbb77cd63	-0.48224156672877977
142	0xbff7ac0afa834c2c	-1.4795026574763694
143	0xbfdf5be8d2a854f6	-0.48998470851923004
144	0x3f9d8ae3ecd47757	0.028850137071564443
145	0xbff3f99024bacb7e	-1.2484284815552367
146	0x400188942919b62f	2.1916888438197684
147	0xbfed2d9fe196f9c3	-0.9118194013643052
148	0xbfec56a8c0dbb7cc	-0.8855785147441053
149	0x3ff1bb1db447e069	1.1081826250283717
150	0x3fb40ee6669c5a2b	0.07835235600610051
151	0x3ff1b2fcef6576a1	1.1061982489986024
152	0x3f96e2e2ecc04f39	0.022349878025195145
153	0x3fd4b63e9141324a	0.3236233156683609
154	0xbff2cc7d0d5360af	-1.1749239464316295
155	0xbff4b7d8c1a0fd91	-1.2948844493510914
156	0x3feb7777fd7a6215	0.8583335829490034
157	0xbff01eb04561c9c1	-1.0074923238977223
158	0x3fc0ede943a17dc9	0.13226047327314763
159	0xbfeee683f31ba0d4	-0.9656390903665177
160	0xbff3dccc4ce0d0d2	-1.2414057734541086
161	0x3fe6960ae6b333f2	0.7058157449588391
162	0x4002e46db3a4f7e4	2.3615373644561135
163	0xbffadd447416d759	-1.6790203604445735
164	0x3ffcd7164deea8bc	1.8025115055302612
165	0xbfe62f7dcd1a6492	-0.6932972913665643
166	0x3ff3d1685af2176f	1.2386249115529286
167	0x3fe58e1be305e06c	0.6735972818414786
168	0x3ff8a2e21db76e5d	1.5397664223482004
169	0x3fe8f57e7f7773f4	0.7799675454695021
170	0x3fefe869f6336fbb	0.9971208389865674
171	0x3fe539adf38151cc	0.6632909542045637
172	0x3fe4d22fcdf527a5	0.6506575605974275
173	0xc002b0d4c6768fa0	-2.3363433365756947
174	0xbfe701e9524f2691	-0.7189833266831603
175	0x3fb78d4f679811c2	0.09199997214461234
176	0xbfca69fd3420a88a	-0.2063595299271735
177	0xbfdb60249f004126	-0.42774310615006284
178	0xc000984cf4c70a77	-2.0743655322306114
179	0x4009d3fdc2386897	3.2285113500084424
180	0x4002532f2e1257a5	2.2906173323962826
181	0x3fe0429c1945f428	0.5081310742967888
182	0x3ff0ceee99a7ef85	1.0505205156505053
183	0xbff66c85a2056426	-1.4014946297595627
184	0x3fbb95830388b6d7	0.10775011860161086
185	0x3fd1e3b9f40d2b46	0.2795243151965007
186	0xbff72951da5ce2af	-1.4475878267095756
187	0xbfb8476b22bb4f55	-0.0948397598070277
188	0xbfb7acdbbc8b5649	-0.09248135903484313
189	0xc00146c19a57e139	-2.159548955733183
190	0x3fe969432174a9c6	0.7940993932182259
191	0xbfe45ea15eaa794b	-0.6365515564864749
192	0xbff75ca913b75f1b	-1.460122181908395
193	0x3ff0504a40f8e5e0	1.019602063939935
194	0x3fa3a841322a86ff	0.03839305627231048
195	0xbfd6f0667bfc76ef	-0.35842287166620584
196	0x3ff3d5b78191e082	1.2396769582101403
197	0x3ff319de253b098e	1.1938153700180894
198	0xbfb43ef99f03304a	-0.07908592350139645
199	0xbfe14dff71d02690	-0.5407712195312389
200	0x3fa3ed16db6beb41	0.03891822269903012
201	0xbfee744bdc2a4d98	-0.9516963291265936
202	0xbfd9a8f8bf4f55a5	-0.40093821222884635
203	0x3ffcbcd34850b911	1.7960999321763362
204	0xbfe907b938a5d5b4	-0.7821928125765027
205	0x3fec2ad49baf0a39	0.8802283325861203
206	0x3fdfdf54dbc0c845	0.4980060716653763
207	0x3fea955e9c653434	0.8307335905643698
208	0x3ff8d499004b28ca	1.5519037257641224
209	0xbfe2531f8cc436df	-0.5726468800873724
210	0xbfe96d46000e70d9	-0.794589042768645
211	0xbff1045cb509db5f	-1.0635649749580904
212	0xbff2375d2ef5e379	-1.138516601027929
213	0x3ffd184ddd23aea0	1.8184336317307626
214	0x40008b07341dbe94	2.067884833486298
215	0x3fad17b2f95faecb	0.05682143491853039
216	0x3ff99db02cd71178	1.6009980918471154
217	0xbff316e385faf336	-1.1930880769352377
218	0x3fe6c4405640485d	0.7114564594833258
219	0x3fd8687fc80a2adf	0.38137812171104984
220	0xbfe5a0aa45b4bdb2	-0.6758624421544737
221	0xbfaae4000c18d0a2	-0.052520753361393405
222	0xbfecb2a97880f912	-0.8968093255605558
223	0x3fe01c4175c064fa	0.5034491824946195
224	0xbfda496e5509e41b	-0.4107318716483534
225	0xbfe844c4d46edfe8	-0.7583946370204986
226	0x3fd81ac87c1cc1c7	0.3766347133669367
227	0x3fd92fefcf7ef8c7	0.3935508276298489
228	0x3fe7fc6e71e0f47d	0.7495643829530675
229	0xbfe0e519a148ec5d	-0.5279663229079109
230	0x3fb2e961a04902cc	0.07387361682141175
231	0xbfe04994ab524b36	-0.5089820238230007
232	0xbff3069f5a6e53af	-1.189116814847903
233	0xbfe52aeebae0aaec	-0.6614907884553225
234	0xbff8921dcd9c365a	-1.5356729537628753
235	0x3ffdd6db647c0338	1.8649553227589433
236	0x3fd2928ed5e51607	0.290195187455851
237	0xbfe28c11ff53ad94	-0.5795984255650404
238	0xbfe2aac374f36045	-0.5833451542084808
239	0xbfd20937b91a9b8c	-0.2818126018195748
240	0x3fe537e56fca0ef8	0.663073271120509
241	0x3ff401d60e2b987f	1.2504482797171759
242	0xbfe9249b59de02af	-0.7857186084002786
243	0x3fe53bcb4f54f172	0.6635490941476248
244	0xbfc00d1a5c0a0972	-0.12539987081624876
245	0x3ff2ff22afc8cccb	1.1872889391495842
246	0xbfb861a9f7e6adbf	-0.09524023344299958
247	0xbfd82596aca22863	-0.37729422434552456
248	0x3fe82ae10cb0c47d	0.7552342651234906
249	0x40029dbbcb9a6d24	2.327018347406595
250	0xc000ce1c914a26d1	-2.1006404257540017
251	0x3ffb47d86d62e3a2	1.7050403855230134
252	0xbffdb1dc39d70598	-1.8559229144451361
253	0xbff18b5d905caa71	-1.0965247763766934
254	0x3fd91ebc0e7a1f4b	0.39250089086316525
255	0xbfd25a73259d8b59	-0.28677061723117486

layer1 f8 [64, 128]
0	0x3fd0c5bd4024bd5c	0.26206904663100317
1	0xbfea95c7c6412807	-0.8307837364347969
2	0x3fe14c21febc88f2	0.5405435538598609
3	0x3fe30241461800ae	0.594025265600086
4	0x3fe47f8095e402f2	0.6405642440368793
5	0x400f1bc745a575c7	3.8885636750335126
6	0x3fe901847751c329	0.7814352350670549
7	0x3fcfc2c7d60838ae	0.24813173247134074
8	0x3fe276668232a705	0.576953176777551
9	0xbfe537faf491dbea	-0.6630835320237314
10	0x3fc1d18e1afc7f12	0.1392076141137229
11	0xbfba2feaf8041cf9	-0.10229366831855548
12	0x3ff5f6207b2fba7a	1.3725895702333717
13	0x3fcc3cbbab0a4357	0.2206034264713945
14	0xbfd3cca2833063bf	-0.3093649178641122
15	0x3fbf1cd978998afa	0.12153395838098993
16	0x3ff3c2a3a8d7f082	1.2350193591546774
17	0xbfed4500cabd5c5a	-0.9146732291946009
18	0x3fe33b374e068406	0.6009785198149309
19	0x3fd41231632e346b	0.3136104076919028
20	0xbfc8f59b16a08085	-0.19499529461700518
21	0xc0038a277ead6559	-2.4424581429163195
22	0x3fe702ff54ec3162	0.7191158922810639
23	0x3f81d0b9e71b571b	0.008698894849128494
24	0x3ff8e106e87fe95e	1.5549382287996063
25	0xbff4359426710429	-1.2630807401294624
26	0x3fe51e010e8dc464	0.6599126133206821
27	0xbfe67e4e0e82bff8	-0.7029180797017025
28	0x3fe2b772bb5cb5f7	0.5848935756127379
29	0x400159070849f804	2.16847044444785
30	0x3fc0fdf1a03c4567	0.1327497513198452
31	0xbfb5eb10f627a65d	-0.08561807641640358
32	0x3fd203f8319f4cf6	0.28149227949070565
33	0xbfbf157f8de4e1ab	-0.12142178739748626
34	0xbfedabe6f2718cf0	-0.9272341475702017
35	0xbfd493b764c304ed	-0.3215158924104589
36	0xbfdafcae525ea608	-0.42167242092054424
37	0xbfe106294cb88c37	-0.532002115102279
38	0x3f9a40a0c1649a95	0.025637161067744236
39	0x3fd726610d2aa16a	0.36171747480195526
40	0xbfc0f77fd0254b48	-0.13255307830203322
41	0x3fc276c0882429f9	0.14424902579806068
42	0x3fd5b10a597cf6c3	0.3389306901843662
43	0xbfd74618f59b3f06	-0.36365341172221155
44	0x3fdb8e7c167857c5	0.43057157701820997
45	0x3fb0ca3e8ae7414e	0.06558600321955518
46	0xbfec31bb5c66419b	-0.88107078596845
47	0xbfe467a9a7651b65	-0.6376541394646266
48	0xbfdc97ce83421fc3	-0.44676554506486016
49	0x3fe81046986464a5	0.7519867874535932
50	0x3ff346591abbd4f6	1.2046748203550215
51	0xbff064956a5d810b	-1.0245565562145795
52	0x3fbf15e9f4595e3b	0.12142812934450202
53	0xbfe8a1bf424556fb	-0.7697445196488099
54	0x3ff6c443ff32be25	1.4229164093666296
55	0x3fd144f0b2ff0cee	0.269832777787271
56	0x3fdd2f9cf3497d7a	0.45603107222083106
57	0xc01015ca281f0fd3	-4.0212789792021395
58	0xbff58453226f6ef6	-1.3448058457497019
59	0xbfa6bb97fd6e8fb0	-0.04439997643137816
60	0xbfedd47122e8b8ab	-0.9321828538720828
61	0xbfe94ed61b4715d7	-0.7908735783354882
62	0x3ffc2030a5298b5c	1.757858891644637
63	0x3fee5ea66f1d6052	0.9490539713106136
64	0x3fea97fc6b90aea6	0.8310529805070999
65	0x3ffabe79717817a0	1.6715025360476616
66	0xbfdaf5340bf7607c	-0.4212160221918635
67	0x3ff41ebabe860be3	1.2575023119286406
68	0x3feb19add1248529	0.8468846401994244
69	0x3ff3c3e4ed8a57cf	1.235325744526097
70	0x3fea6104c1dcf6ff	0.8243430887593773
71	0xbfe1a5b7312868f7	-0.5514789543260851
72	0x4002c59b8ff255d7	2.346488117773997
73	0xbfef54175059d91b	-0.9790150231699813
74	0xbfd22c4e498910d2	-0.28395421200936
75	0x3fc18b02b58b7d6f	0.1370547663163779
76	0xbfe515448670edb0	-0.6588461519053705
77	0x3fd0d8d8dfdb6a76	0.26323530064625034
78	0xbfc3347c81378e31	-0.1500392561857651
79	0x3fbbe450693a27aa	0.10895254677794122
80	0x3fbc1fa3cf43ea16	0.10985778627574691
81	0x3fe0e1d2e5654815	0.5275663833983822
82	0xbfd1e9797292fba8	-0.27987514675981595
83	0xbfd5adcdab9658db	-0.3387331176430856
84	0x3fce1b24e1b8fbfe	0.23520337125407303
85	0x3feb17f37efcb2d9	0.8466737251488566
86	0x3fdb20000038337a	0.42382812520445834
87	0xbfe923cb4ec0daab	-0.7856194055701357
88	0xbfe0d9b9df16ddb1	-0.5265778882230078
89	0xbfcbff019c6d2040	-0.21871967447282437
90	0x3ff30c1b41a097b3	1.190455681187342
91	0xbff0163bb6b6c41d	-1.0054280411970986
92	0x3fe7076d2b24693e	0.7196565477964112
93	0xbfa88536be5731a5	-0.04789134095662754
94	0xbf900b7f5ae9849f	-0.015668859409178833
95	0x3fe48c206bf9d5c3	0.6421053036598824
96	0x3fe9b066144b7ee2	0.8027830501923428
97	0x3ff75fb3808c0bb1	1.4608645459527276
98	0xbff7155ac16b6c8f	-1.44271350435773
99	0xbffda95a34d6d5e7	-1.8538457931548409
100	0xbfb2f889f7701a05	-0.07410490313495906
101	0xbfdf138f96904b67	-0.4855689020488882
102	0xbff0c95f976a5059	-1.049163428750964
103	0x3fe96116e00dfd2e	0.7931017280642771
104	0x3fc9aee832b7f2c3	0.20065023876659013
105	0xbfad178252a696ce	-0.05681998499794148
106	0x3ff54dad577f15ab	1.3314641397313192
107	0x3fce5da2d98aa7d9	0.23723254797124474
108	0x3fc4eea695d36bda	0.16353304210392033
109	0x3fe5ec649f365964	0.6851065740218414
110	0x3ff2f3977acaa6cf	1.1844706341311626
111	0xbfeeb7c3042a6da6	-0.9599318581926368
112	0x3fe1592350fabdf8	0.5421310979490377
113	0x3fe9da1e73622b2b	0.807875848158209
114	0xbffbe37f3f723618	-1.7430412748684656
115	0x3ff86d078f2e7ed9	1.526618537238326
116	0xbffe2912abcee687	-1.8850275717981348
117	0xbfe71288c4a26366	-0.7210124817384951
118	0x3ffc1d9f84e7d383	1.7572322074531435
119	0x4003e18b6922e72c	2.485129186036735
120	0xbfebeaaca2fa0f65	-0.872396772684152
121	0x3fd3d40752622ace	0.30981619878063504
122	0x3fdae1df6735e393	0.42003617362166173
123	0xbfd8215f49bcaeff	-0.37703687859423946
124	0x3fdef2db85996d45	0.48357284590538924
125	0x3fdc6c9ffb9d0bc9	0.4441299397623735
126	0x3fd9a542b5d16956	0.4007117057386912
127	0x40048d1c9c956c7a	2.568902228651095
128	0x3ff3ab2ecb16415e	1.229292672451343
129	0xbf9d15df312eea7c	-0.02840374696436719
130	0xbfd21d1d8db9fd42	-0.28302706566315206
131	0x3fdde2a2906599ff	0.4669577036023895
132	0x3fec64828692ddbe	0.8872692707436085
133	0xbffcff81bea6b344	-1.8123795935927811
134	0x3fe29a05f720b2f4	0.5813016726220597
135	0x3fd1954809c6e828	0.2747364135244674
136	0x3fe45362420f07b1	0.6351786890229417
137	0xbfef6c43ca91f9eb	-0.9819659191560367
138	0x3febbe631067c44a	0.866990596810987
139	0x3fccd3dc998d04b2	0.225215506530764
140	0x3ff686ba2779a0fe	1.4078923742291063
141	0x3fc101e4ad8335a1	0.13287027809421395
142	0x3fd0b9d04f45bb99	0.261341168798873
143	0xbfe2896258884f04	-0.579270527758553
144	0xbfff97b629d724bf	-1.9745389589682387
145	0x3ff505ae85e39149	1.3138871412312076
146	0xbfe1b9dc077091a9	-0.5539379258448679
147	0xbfccc0e62284dc08	-0.22463680921075047
148	0xbffa21391a9633fe	-1.6331110991043256
149	0xbfe2830c34789a53	-0.5784970307184473
150	0xbff61f3e53879334	-1.382627798354588
151	0xbfc5d9d00b4431bc	-0.1707096152316704
152	0x3ff1f92d74bb843e	1.1233343658316381
153	0x3fe2c60292134f20	0.5866711476360003
154	0xbfc43925b13b9af5	-0.15799399522730764
155	0x3fe4239774358327	0.6293446798045793
156	0xbfe484df95fff174	-0.6412198953326382
157	0x3fe5183cf3747fcf	0.6592087511999071
158	0x3fe46eba3c73b792	0.6385165386870872
159	0xbfd44754d7fd8069	-0.31685372441098153
160	0xbfec2ac3b1840884	-0.8802202670197095
161	0x3ff45b9b0010d95e	1.2723646166392295
162	0xbff2f8bb781c8366	-1.1857256595469265
163	0xbfe139dafa618ca0	-0.5383124246840403
164	0x3fec5a2750c34ba6	0.8860050752067437
165	0xbff61ec799923645	-1.382514572036045
166	0xbffaceb41d958354	-1.6754647403360723
167	0x3ff0f3625a8fb023	1.0594199693250708
168	0x3ff1939200727d0b	1.0985279099912215
169	0x3fc9c30ebabb17ad	0.2012651836177474
170	0x3fe1845b5e171a7d	0.5474068486881404
171	0x3fe03aa8dab05a19	0.5071605941073499
172	0x3ff8f5166939b02c	1.5598358259549157
173	0xbf9324eae486f287	-0.01869551677531203
174	0xbfd114caaaa741e9	-0.2668940226112953
175	0xc000ee233790a449	-2.11627810869371
176	0x3ff9e7d392876a35	1.619098255518691
177	0xbfedc7f48db3ccaf	-0.9306586043952815
178	0xbfe22d284d46d6d2	-0.5680123814879272
179	0x3fddffafaac2b9ab	0.46873084712833685
180	0x3fe46994d89e386d	0.6378883581944713
181	0xbff8923c43f6f295	-1.5357020048969947
182	0x3ff5a9e7536f2e28	1.3539803752090709
183	0xbfea3afa9a2b935e	-0.8196995745789584
184	0x3ff3b16726e64bdc	1.2308112639918738
185	0xc000623a27ec769b	-2.0479624861753343
186	0xbfbb9b9416344f3a	-0.10784268896196361
187	0x3fd48c72c5ec8390	0.3210722859239974
188	0xbfe62f7b4f4dd54d	-0.6932961033732369
189	0x3fdce3e6b8d5ec83	0.4514099888835476
190	0xbfe757f589b1cf8d	-0.7294871987673887
191	0xbff44906e6946d74	-1.2678288466475722
192	0x3fd454d82fcd5516	0.31767849605724174
193	0x3fc1b36456c5f962	0.13828710782031367
194	0x40001f9b382152a7	2.0154327759904223
195	0xbfe1359af61810ad	-0.5377936178706669
196	0x3fcf3c5e7bb786cb	0.24402981797088893
197	0xc001737ba1fcfc2d	-2.1813881545381464
198	0xbfd69bbb95b95fe6	-0.3532551729344945
199	0x3fdf5d10be208a8a	0.4900552612981889
200	0x3fada1a5a0eb0a75	0.057873893636060915
201	0xc001e5de5f8b1bd7	-2.2372405495002385
202	0xbfd10ba7b69792db	-0.2663363726735903
203	0x3ff35e3b9ae4d8f9	1.210506062559544
204	0x3fe6e5791c298e3b	0.7155118513150635
205	0x40070fa90dfa4a1d	2.8826466648108764
206	0x3fc94c3588bee7bc	0.19763821770703582
207	0xbfef0fc190551131	-0.9706733530988797
208	0xbfdea2ff2d92a529	-0.47869853449317873
209	0xbfe16892471a49bc	-0.5440150631641738
210	0x3fe6dcf9fcf47806	0.7144746723677151
211	0x3fc3c01438e1c4e4	0.1542992856734947
212	0x3fe5bd8b0c7af7d6	0.6793875926739428
213	0x3ff1d232eca5fc85	1.1138180965497508
214	0xbffd988b56a54db4	-1.849742258510429
215	0x3fdcf931a0fe1e11	0.4527095863527118
216	0xbfec0b1ecf1619bf	-0.8763574642805948
217	0x3ffa86d374f8a1d9	1.6579165047825113
218	0xbff2cd39f160e96d	-1.1751040867662497
219	0x3fe6c5996d527a7d	0.7116210112761362
220	0xbfae57967d62a35d	-0.059261992269347565
221	0xbfdc9c2c61c7de9e	-0.44703206585789157
222	0x3fc6284b8ed15ae2	0.17310471032643365
223	0x3fe2be9a9be4d466	0.5857670826723165
224	0x3fd3ee752c5a7e2e	0.3114293034686594
225	0xbff48550c23307ce	-1.2825477205192217
226	0xbfd9a6781bb7e8c1	-0.40078547198175946
227	0xbfd19e84a462d052	-0.275300179036326
228	0xbfe5aa14e8ec90f1	-0.6770119237230842
229	0x3fe71e750f67459c	0.7224679280135891
230	0x3fb6bac8ca76c604	0.08878760283439396
231	0xbff9522a9e694be6	-1.5825601756994216
232	0x3ffa710de633ace5	1.6526011459598575
233	0x3fe25f28503489a1	0.5741159025677015
234	0xbfe34ce48af08e38	-0.6031363214173728
235	0xbfe02d1451074732	-0.5055028517328763
236	0x3faf20675f3b006c	0.06079409635049235
237	0xbfc32fa3c01d8558	-0.1498913467467371
238	0x3fe257c907dc7cd6	0.5732159760990736
239	0xbff9dcc070fb5f89	-1.6163944638592247
240	0x3fb7b6080498eb07	0.09262132751693396
241	0x3fd8e0ff54fc6df8	0.3887327508871006
242	0xbfe2f87688e6b5de	-0.5928299592830475
243	0x3fd3d0c8246edd77	0.30961803014675787
244	0x3fe55d270964eaab	0.6676211532097417
245	0x40000d8a2ba11b4e	2.0066111954251147
246	0xbfed9eaf0bb542c0	-0.9256205776856277
247	0xbff358d9cb5da413	-1.2091920799232454
248	0xbfee451877c5f508	-0.9459345187493975
249	0x3fcb5f6e46c375eb	0.2138498158955565
250	0x3fb72510497026cf	0.09040929596826718
251	0x3ff3cd196a00d5b6	1.2375730648758299
252	0xbff0c0fd8463d8d1	-1.0471167727933344
253	0xbfffce29f6a3cbec	-1.9878329882019399
254	0x3fdbb7f1e2f9934e	0.4331021038581654
255	0xbfda36b9ca1d19b8	-0.40959019410766073

layer2 f8 [10, 64]
0	0xbfe027bfcd8a24b7	-0.504852200932098
1	0xbfa6ecf02eb44e3c	-0.044776445103846346
2	0x3fda5eadff57bafe	0.4120287889081026
3	0xbfe6e176e9498ad1	-0.715022521628578
4	0xbfdedba98b94de6a	-0.4821571219540376
5	0xbff3a1d909248258	-1.227013622010551
6	0xbfedbafe026e9906	-0.9290761992931784
7	0x3feb14af4ffe6da5	0.8462750017528619
8	0x3fcf74f89719299d	0.2457571733269334
9	0xbfcc3e60f4634528	-0.2206536477374723
10	0x3ff59488bf05e0e3	1.3487632238230212
11	0xbfc6a45925b8c823	-0.17689051000485376
12	0x3ff22e7df79de87d	1.1363506004841206
13	0xbfffc9a6187f76d9	-1.9867306668233395
14	0x3fd5517f5d5b2cf5	0.3330992137604903
15	0xbff38439d4cb165f	-1.2197817146528889
16	0x3fecc928b5ef287f	0.899555545177705
17	0x3feaf91ee6d4ff8b	0.8429102428853964
18	0xbfc578045d06e66b	-0.16772512953120908
19	0xbfec7e5457f3ad15	-0.890421077519394
20	0xbfeeab491ded7cc4	-0.9584088882947062
21	0xbfef7819f321f65a	-0.9834108112988347
22	0xbff96a27d8fe49b4	-1.5884169079114203
23	0xbff48a8e82461dc2	-1.283827313310994
24	0x3fdbeb63366d2379	0.43624191584654387
25	0x3fed5b5f8a136e39	0.9174039551539358
26	0xc0041a120f8ab07f	-2.5127297605704935
27	0xbff94e0f22cecebf	-1.581557403534063
28	0x3ffc37037d6b50bf	1.7634310626208813
29	0x3ff84dadfbeee94f	1.518964752306221
30	0x3fe085211634c9ff	0.5162511285510049
31	0x3ff40e4e34977ada	1.2534925512660977
32	0xbfeed4a8548b8c81	-0.9634591723701221
33	0xbfeffb18b03461a3	-0.9994014207359679
34	0x3fd7d2ec44d3c27b	0.3722487136974803
35	0x4004c95c7d0b6a7b	2.598320938979041
36	0x3fa26b7ba6b9af53	0.03597628030988056
37	0x3ffe6d092a30d7e6	1.9016200683668045
38	0x3fd7b4a24502adbe	0.3704000162058171
39	0xbff80883bc9c3f24	-1.5020787589637132
40	0x3ff53d854dc1d273	1.3275197064769173
41	0x3fc0867ced961978	0.12910424805540877
42	0xbfe8772e8e8b21e5	-0.76454856720471
43	0x3fe77407dd55f2de	0.7329139063800445
44	0x3fee1ba5fc06db72	0.9408750460050739
45	0xbff1983aff15c76f	-1.0996656383763044
46	0x400097420a636439	2.073856431158245
47	0xbfe024360587eb3d	-0.5044202907587089
48	0xc0058d973d143063	-2.6941361209665486
49	0x40039827dea5f937	2.4492947954560367
50	0x3fdb6091471da83b	0.4277690119257646
51	0x3fd3174b9f165c96	0.29829683814882324
52	0xc00adc528a3be4c3	-3.357579307511146
53	0x3ff263f09507445e	1.1493993588849416
54	0x3fc4bfa286723c00	0.16209823193318584
55	0xbff01348d54aa66d	-1.0047081309989168
56	0x3fc82028be9c5aa9	0.18848141963163315
57	0x3fe9457b44c59832	0.7897316306305184
58	0xbff02a1869a967b3	-1.0102771880542434
59	0xbfe7338e48b39850	-0.725043432231141
60	0xbfd93e0866384df5	-0.3944111822358701
61	0x3fd652ab8b963091	0.34879578238975123
62	0x3fe8b303584d58c7	0.7718521809245197
63	0x3fc77ae880da23b8	0.18343836108786404
64	0x3fc75149e9643027	0.18216823478758323
65	0xbff687e2879ae916	-1.4081750199389425
66	0xbf986f41b96d29df	-0.023861910765200164
67	0xbff51251aba73c8a	-1.316972418327881
68	0x3fe314c287e7b16d	0.5962841658015755
69	0xbfcba9a19be80f4c	-0.21611423599835644
70	0xbfeb118d54e535be	-0.8458925874817209
71	0x3fd9b8ad1170cc28	0.4018967314070232
72	0xbfb168d6a2504b78	-0.0680059572480739
73	0x3fe9745ee57dba78	0.7954554064034047
74	0xbffc4520ea311c10	-1.7668770931356939
75	0xc0032e62ad82acbb	-2.397649150419594
76	0x4003d91f7ccb9b8f	2.4810170888553738
77	0x3ffbc0360f961241	1.7344265564762653
78	0x3fe0cf0bae5b8d01	0.5252741246626159
79	0x3febebd7f1bccb35	0.8725394936976502
80	0x3feb8e2ff0dc3621	0.8611068443585205
81	0xbfe13de2e5ccffa0	-0.5388044822975537
82	0x3ffc20512affa9ac	1.7578899078022046
83	0x3fce232343120480	0.2354473187915893
84	0x3febafd1a7c615db	0.8652122761565652
85	0x3fc7d6cacde1352a	0.18624243786545353
86	0xbfe450ed7046bfb2	-0.6348788445375162
87	0xbff7a8686b4305df	-1.4786152067102802
88	0x3fc4567044bacc65	0.15888789516393156
89	0xbff8f79f57377d89	-1.5604546934990557
90	0xbfe26ef8bc9e70ea	-0.5760463413203329
91	0x3fe21ab304f8131b	0.5657591912318795
92	0xbff24e1131b59b49	-1.1440593663953271
93	0xbfdbae43d4850cf5	-0.43251128915672094
94	0xbfccea5ea733fafc	-0.22590239681445456
95	0x3fd787f819873da4	0.36767389767643466
96	0x3fe9a59b522c74a4	0.801465664382381
97	0x3fefcc0cf546e4d9	0.9936585226597813
98	0xbffe1edd26d4eb1d	-1.8825351254333278
99	0xbfe4501ff22e9b7f	-0.6347808580511439
100	0x3fcface4bd8ee84e	0.247463791425448
101	0xbfe516a895daf51d	-0.6590159346448307
102	0x3f9f2134e288f7a6	0.030400110556221847
103	0x400064d515a43f83	2.0492345515012302
104	0xbfeba2b45c670236	-0.8636113934263168
105	0xbfd7b5ec9cf9030a	-0.3704787762581395
106	0x40022ae516be3837	2.270944764785806
107	0x3fe5b1fbc6ba56fa	0.6779765015987487
108	0xbff34dc1c4612cd3	-1.2064836188390486
109	0x3ff0f42fc296a076	1.0596158600910974
110	0x3ff5506886516361	1.3321309325021604
111	0xbfc1b1804081cb1b	-0.13822940015560267
112	0xbffe2247727892cf	-1.8833689185641338
113	0x3fb24cdb97a4e481	0.07148525669335194
114	0x3fe3b25088f8a899	0.6155169177266259
115	0x3fd9bb9e1ca0f278	0.40207627101680243
116	0x3ff68def613ae516	1.4096521184968132
117	0x3fdce3cf0321fc26	0.4514043360322283
118	0xbff887dea58596d8	-1.5331713166901206
119	0x3fec4c052a150052	0.8842798063196915
120	0x3f971bcd191b0040	0.022566990525547448
121	0xbff9f3a9dfb870c9	-1.6219881762581727
122	0xbfde66f78335214a	-0.4750345975230813
123	0x3ff730c986e3a516	1.4494109410391665
124	0xbff1bac15a5f769b	-1.1080945520583672
125	0x3ff962975b53f0f8	1.586570126294701
126	0x3ff1a7c66a38d8bd	1.1034607075976475
127	0x3feedda4c8f4f76c	0.964556114667841
128	0x3fcdda005e57f935	0.2332153759634338
129	0x3f9e6d9a76086513	0.029714978651189727
130	0x3fec5511ee135e00	0.8853845262446498
131	0xbff4c40c166fab20	-1.2978630901731734
132	0x3fc7b94b0498264e	0.18534219478924502
133	0x3fe6b8f15a96954f	0.7100760239888276
134	0x3ff70b8941bb2a06	1.440316445123814
135	0xbff7d251c9e3cbbf	-1.4888475309678453
136	0x3fd190207850cc3f	0.274421803947181
137	0x3fdee741dc175999	0.4828648232773048
138	0x3fe633804d54f4a9	0.6937867651355606
139	0xbfe2c79f5be41e9c	-0.5868679804561512
140	0x3ffa6947c04b3d31	1.6507031928520741
141	0xc0016941bce008e2	-2.176394916140553
142	0x3fefebc36588be90	0.997529695805456
143	0xc0010ea687c097cb	-2.1321535688066198
144	0xbff31aed3bf7ca7b	-1.1940739004609486
145	0x3fe1adb7ebcdb79e	0.5524558644808513
146	0x40015fe5d0e9a20b	2.171825058107293
147	0xbff730a7eb6e2078	-1.4493788906566163
148	0xbfd055447cf7156e	-0.25520431712751346
149	0x3fe52db15f4d0612	0.6618277417512124
150	0xbfd6be9e3605492d	-0.35538440013364686
151	0x3fabb535f8c287de	0.054116903892704946
152	0xbfed3b158e17ee77	-0.9134624266875581
153	0x3ffa9358fe6cf563	1.660973543024135
154	0x3fd369f75d1009a3	0.30334266746663213
155	0x3fda19cc0e3e07db	0.4078245295605691
156	0xbffc3560adde25e3	-1.7630316535672754
157	0xbfd2e2a7af546c95	-0.2950839245037938
158	0x3fb052bf680dcc77	0.06376262941721388
159	0x3ffb1bd38426c94c	1.6942935144584963
160	0x3fd837f16652b70f	0.37841448776713177
161	0xbff1aa0a53ef853a	-1.1040137556777396
162	0xbff1d92af9c1a66e	-1.1155195003615535
163	0xc002d464ad11f246	-2.353707649336033
164	0x3fdc2fdf385923fd	0.44042187216524536
165	0xbffceab2fd7a0951	-1.807299604552629
166	0x3fb27a78b8a0e50e	0.0721812678101694
167	0xbff1078d9a43b36f	-1.0643440271334972
168	0xbfefd865aa461ec2	-0.9951656652128451
169	0x3fe73814582844aa	0.725595638448927
170	0x3ff8a5e3ae127263	1.5405003356637728
171	0x4005faae10f3f3c8	2.7474023174713444
172	0x40060e305ac4b4c8	2.756928166511532
173	0x3ff8b6846ec488a6	1.5445598914016414
174	0x3ff443b0397f2847	1.2665254827466172
175	0xbfd370eea770d449	-0.3037678370631665
176	0xbff3ead1f696d41c	-1.2448291427983866
177	0xbff943e3859e52f5	-1.579074403712352
178	0x3fc39c93f862ff7c	0.1532158816171395
179	0x3fc542596db3c479	0.16608732086709546
180	0x3fe3117c7628bff4	0.5958845432087387
181	0xbfcf9114a316a38b	-0.24661500895788566
182	0xbfef7379d7893136	-0.9828461847005545
183	0xbfa22bd217f9e5a1	-0.03549057524373756
184	0x3fc8627c30462506	0.1905055270874884
185	0xbfea0a3aec8e629f	-0.81374880030042
186	0xbfa499fb3b07a72b	-0.04023728461818473
187	0x3fbd6a408b064791	0.11490252870706132
188	0x3fe6b74c63e40785	0.7098752928725253
189	0xbff34d209cad4f9b	-1.206329929370418
190	0x3fe50b868d5e2568	0.6576569329346684
191	0xbfe242d7a41fecab	-0.5706594663200993
192	0xbfeca04643c45f64	-0.8945647548270981
193	0xbff530a14fffec15	-1.324372589587033
194	0xbfeda6ade2ccb9d3	-0.9265965871507497
195	0x3fd2997297d20021	0.2906157000179537
196	0xbfe0890aa7982ed0	-0.516728713353098
197	0xbfb5087476e3dd35	-0.08216026213255108
198	0xbfb0649da8378628	-0.0640352760015267
199	0xbfd3ecc1142320ae	-0.31132533041501176
200	0x3ff3609ea6095240	1.2110887990758243
201	0x3ff0d296c60771a3	1.051413320113263
202	0x3ff07e12b33db6f0	1.0307795526127244
203	0x3ffb438d66bcd415	1.7039922726810393
204	0x3fe67b5d76ad0a60	0.702559215344376
205	0xbffa8dcf2758319a	-1.6596213852782058
206	0x3feb4d59645678a6	0.8531920394632564
207	0x3fd8a5084a341dde	0.38507277723735267
208	0xbff55dea7bcb7c01	-1.3354286990868334
209	0x3fe942f941080e37	0.789425494207939
210	0x3ff809946b5f48db	1.5023388094164634
211	0x3fd36e4edc3e8d9e	0.3036076689552035
212	0x3fd27cc2bd738c40	0.28886478901967294
213	0x3fec494455349c1e	0.8839437164468824
214	0x3fe69a5c7bb9f11c	0.7063429276018129
215	0x3f731406a20b57db	0.004657770071124968
216	0x3fd8b38fa9739614	0.38595954463957693
217	0xbfce9f97849ed517	-0.2392453572808015
218	0x40043272903d2991	2.524632574907806
219	0x3ffa6e04c6f20d38	1.6518600245770596
220	0xbff43d31425ad218	-1.2649395553572784
221	0x3fe605c73def8c72	0.6882053575212821
222	0xbfcd2309caf270c2	-0.22763178262255762
223	0xbfe82098e600fcc8	-0.7539791576636157
224	0x3fe40e02af371fb2	0.626710264413296
225	0x4001a3ec1ab3f359	2.2050401769796903
226	0xbff073d101906d62	-1.0282754956341127
227	0xbfb38706cbb1a79f	-0.07627909157750289
228	0xbff992fd91de1586	-1.5983863542508927
229	0xbffe744440f3f3de	-1.9033854043220724
230	0x3fd965e49438d2fa	0.39684404825975117
231	0xbffc81a6123b9198	-1.7816525184835879
232	0xbfed47d0aab43cdc	-0.9150164922774837
233	0x3ff71c8812f9a7dd	1.4444657078952254
234	0xbfcb3370f5df6615	-0.21250736241818005
235	0x3fd54068c4dead8e	0.33205622888154884
236	0x3fdff95a8697af26	0.49959433692741795
237	0x3fdc5b9cf435ac14	0.4430916199550563
238	0x3fdf10d851a13df0	0.48540313693680925
239	0x3fc5d7782d9dcf30	0.17063810565343251
240	0xbfe8db75ed9232b9	-0.7767896308956416
241	0x3fd87d5b6a18cc11	0.3826511894323526
242	0xbfe8ebea84dcb3c4	-0.7787983508074992
243	0xbff5ba4442df11ec	-1.3579752552187712
244	0x3fee791bb26dd442	0.9522837147657202
245	0x3ff1de1d39f84029	1.1167270912592449
246	0xbfe1a472609df87f	-0.5513240706493575
247	0x3fcbb9a6bd174aa7	0.21660312874754092
248	0x3ff46ba4fcce0333	1.2762803912339222
249	0xbfe65c5a6e99ec03	-0.6987735901051341
250	0xbfe3c8cdafb76e23	-0.6182621414149633
251	0xbff9aef4862fe483	-1.6052136651690325
252	0x3fd84ecd41d63a8f	0.3798096793115428
253	0xbff8b7ee734d9938	-1.544905138399896
254	0x3fa2470e6d58f3ca	0.03569836697395308
255	0x3fdb550183168d83	0.4270633487851329
